top/app/src/main/assets/final.tflite (tflite, 70308 bytes, 25 tensors)

conv1/Conv2D_bias f4 [4]
0	0xbe2db1dc	-0.16962379
1	0x3d8131ff	0.06308364
2	0x3d2a6c0e	0.041606955
3	0xbbd14738	-0.0063866638

conv1/weights f4 [4, 3, 3, 3]
0	0xbb8f7c7b	-0.004378853
1	0xbd22297a	-0.039590336
2	0xbcb5cc94	-0.022192277
3	0xbda06c46	-0.078331515
4	0xbe735dc5	-0.23766239
5	0xbe059a36	-0.13047108
6	0x3edf796b	0.43647322
7	0x3d2149d5	0.039377052
8	0xbd015389	-0.031573806
9	0x3c965b72	0.018354151
10	0x3eaeaa22	0.34114176
11	0xbe0d44e6	-0.13795814
12	0xbe45ec79	-0.19328488
13	0x3e59ae09	0.21257795
14	0x3d95dda4	0.07317665
15	0xbec9fec1	-0.39452174
16	0xbdca7220	-0.09885049
17	0xbe8e0e35	-0.27745214
18	0xbe7ff69a	-0.24996415
19	0xbea72bf3	-0.32650718
20	0x3e2e407c	0.17016786
21	0xbe886233	-0.2663742
22	0x3e2cf2b2	0.16889456
23	0xbdfaa7c1	-0.12239028
24	0xbea63f84	-0.32470334
25	0x3d779329	0.060443077
26	0xbda2945f	-0.07938456
27	0x3c9d0172	0.019165728
28	0xbe59f6a3	-0.2128549
29	0xbe19b865	-0.15011747
30	0xbd857d6c	-0.06518063
31	0x3eb7d1fc	0.35902393
32	0xbe859ae8	-0.26094747
33	0x3e981fea	0.29711848
34	0x3dc92c51	0.09822906
35	0xbd017b77	-0.031611886
36	0xbe7d356f	-0.24727415
37	0xbecbccbd	-0.3980464
38	0xbecbf640	-0.3983631
39	0x3c5e4c8c	0.013568055
40	0x3cc7af89	0.024375694
41	0x3d1a9e06	0.03774836
42	0x3dc68c08	0.096946776
43	0x3e67adba	0.22624865
44	0x3e649cbb	0.22325413
45	0x3da43d09	0.08019454
46	0x3d0e6c14	0.03477104
47	0xbe37632c	-0.17908925
48	0x3df8594f	0.12126409
49	0xbd17cdcc	-0.037061498
50	0xbe37edf7	-0.1796187
51	0xbec349be	-0.38142198
52	0xbea9c876	-0.33160752
53	0xbe9a6ec5	-0.30162635
54	0x3e7169bf	0.23575495
55	0xbe461f44	-0.19347864
56	0xbf062e12	-0.5241405
57	0x3da70b76	0.08156483
58	0xbeb6ebbf	-0.35726735
59	0xbeabf1ef	-0.33583018
60	0xbe1d4ef1	-0.15362145
61	0x3e7e58ab	0.24838512
62	0xbeb9a309	-0.36257198
63	0x3a774e7b	0.0009433997
64	0x3daee8c2	0.08540489
65	0xbdb8d29b	-0.09024545
66	0x3d1481fb	0.03625677
67	0xbe427179	-0.18988599
68	0x3cd09b6f	0.025464742
69	0xbc4d1531	-0.012517259
70	0xbeada696	-0.33916157
71	0x3e9b5c1f	0.3034372
72	0xbdec04ee	-0.11524378
73	0x3d7b9b73	0.061427545
74	0xbe3667c2	-0.17813018
75	0x3e69e6b3	0.22841911
76	0x3e93322f	0.28749225
77	0x3f009845	0.50232345
78	0x3d88ffcc	0.066894144
79	0x3d2f2296	0.042757593
80	0x3e63ef00	0.2225914
81	0x3e894032	0.2680679
82	0x3e80d60e	0.2516331
83	0x3e895a0f	0.26826522
84	0x3e676c00	0.22599792
85	0xbdefe5a1	-0.1171372
86	0xbedb8bfa	-0.4288023
87	0x3ebff3eb	0.37490782
88	0x3ebcb9a9	0.36860397
89	0xbe602d5d	-0.21892305
90	0xbb6d667a	-0.003622441
91	0x3e971ca2	0.29514033
92	0xbd9feb4e	-0.07808553
93	0x3c843fe6	0.01614375
94	0x3ea5c0bb	0.32373604
95	0x3d655b32	0.055995174
96	0xbe66286b	-0.22476356
97	0x3e3dc438	0.18531883
98	0xbee615e6	-0.44938582
99	0xbbb6df75	-0.0055808374
100	0xbe956dfb	-0.2918547
101	0xbdf1bd41	-0.118036754
102	0xbe68babf	-0.22727488
103	0x3de6fbfb	0.1127853
104	0xbeb625f7	-0.3557584
105	0xbd8294f5	-0.063760675
106	0xbe0f459a	-0.13991395
107	0xbe6ae473	-0.22938709

conv2/Conv2D_bias f4 [8]
0	0xbc8f88a4	-0.01752121
1	0x3d99dbc2	0.075126186
2	0xbd8ac40d	-0.06775675
3	0xbd6e8172	-0.058228917
4	0xba5cc35d	-0.00084214454
5	0x3d11d8e7	0.035607245
6	0xbd9d3f12	-0.07678045
7	0x3da3dc31	0.080009826

conv2/weights f4 [8, 3, 3, 4]
0	0x3cc0635a	0.023484875
1	0x3c40a61c	0.011758354
2	0xbedfd248	-0.4371512
3	0x3ca4dba8	0.020124272
4	0xbebf77c0	-0.3739605
5	0xbe596594	-0.21230155
6	0xbe78f1b4	-0.24310952
7	0xbc962d95	-0.018332282
8	0xbda96666	-0.08271484
9	0xbd1e4e07	-0.03864863
10	0xbef0db33	-0.47042236
11	0xbea7a900	-0.32746124
12	0xbcafe726	-0.021472525
13	0x3dedec02	0.116172805
14	0xbeb419ec	-0.35176027
15	0xbd87db46	-0.0663362
16	0xbe6d0e57	-0.23150001
17	0xbdedd042	-0.11611988
18	0x3dc868a9	0.09785587
19	0xbe67256b	-0.22572868
20	0x3e839660	0.25700665
21	0xbe5d8e21	-0.21636249
22	0xbe7003ac	-0.234389
23	0x3d3eca7a	0.046579815
24	0xbec81ec0	-0.3908596
25	0x3ee62170	0.44947386
26	0xbf235a10	-0.638093
27	0x3c108be1	0.008822412
28	0x3c58d8b8	0.0132352635
29	0x3ed0ce5c	0.4078244
30	0xbf00f9f3	-0.5038139
31	0x3dc2b2df	0.09506773
32	0x3dee3805	0.11631779
33	0x3e9c47c5	0.30523506
34	0xbebaf300	-0.3651352
35	0x3ed77200	0.42079163
36	0xbeaa70a3	-0.3328906
37	0x3cd0117d	0.025398964
38	0x3e0eda5a	0.13950482
39	0xbf121140	-0.5705757
40	0xbdcb664c	-0.09931621
41	0xbdcb139f	-0.09915852
42	0xbe8887bb	-0.26666054
43	0x3e3474a8	0.17622626
44	0xbeb84bed	-0.35995427
45	0x3e37df75	0.17956336
46	0x3d9290bd	0.07156513
47	0xbf255c36	-0.6459383
48	0x3e93fa9a	0.2890213
49	0x3eaf198b	0.34199175
50	0x3d0be8de	0.034157626
51	0xbf1e4f7d	-0.6184004
52	0xbe9c2f06	-0.30504626
53	0xbe0a366b	-0.13497321
54	0xbcd5d654	-0.026103176
55	0xbf2d6eb6	-0.67747056
56	0xbdfd4811	-0.12367261
57	0xbc3272c0	-0.010891616
58	0xbe85c489	-0.26126507
59	0xbeb2a0e5	-0.34888378
60	0xbf055cd4	-0.5209477
61	0x3e0774f2	0.13228205
62	0x3dc4cf36	0.09609835
63	0x3e45a756	0.19302115
64	0xbe8cf307	-0.27529165
65	0x3e2b3305	0.16718681
66	0x3dfd7f20	0.12377763
67	0xbe442491	-0.19154574
68	0x3d28a228	0.04117027
69	0x3ddb7ddd	0.10717366
70	0x3dcfe340	0.101507664
71	0xbedf466b	-0.43608412
72	0x3e6b732a	0.2299315
73	0x3e985827	0.29754755
74	0xbcd4c0db	-0.025970867
75	0x3d1c7d80	0.038205624
76	0x3e4a3500	0.1974678
77	0x3d5f219c	0.05447541
78	0x3dbb6289	0.091496535
79	0x3bd2eff2	0.006437295
80	0x3d2664ac	0.040623352
81	0x3e2e165e	0.1700072
82	0x3df03342	0.11728527
83	0x3d9274b9	0.07151169
84	0x3dd33301	0.103124626
85	0xbe330241	-0.17481329
86	0x3d09e5a6	0.033666275
87	0x3e88bc1d	0.2670602
88	0x3ed5ec8f	0.41782042
89	0xbd7f3459	-0.062305782
90	0xbc4f06c6	-0.012635892
91	0xbe189692	-0.14901188
92	0xbf440f0a	-0.7658545
93	0xbd9ccbb1	-0.076560386
94	0x3dd2d9db	0.10295459
95	0xbd6c3da1	-0.05767596
96	0x3e9a4eb9	0.30138186
97	0xbe2557e8	-0.16146815
98	0x3e8a74a8	0.27042127
99	0x3d9a38df	0.075303786
100	0x3cdac758	0.026706383
101	0x3ea3fdec	0.32029665
102	0x3e2d11e7	0.1690136
103	0xbdfa5650	-0.12223494
104	0x3e29a7d9	0.16567935
105	0x3e1e1cd4	0.15440685
106	0x3d7cb2ab	0.06169383
107	0xbe0ebfa2	-0.1394029
108	0xbe8f3d5a	-0.27976495
109	0xbf308166	-0.68947446
110	0xbda3be2d	-0.079952575
111	0xbe981d98	-0.29710078
112	0xbf5b9124	-0.8576834
113	0x3cf2b5c9	0.029627698
114	0xbedbb512	-0.42911583
115	0xbd8ebe44	-0.06969884
116	0x3d9b5e12	0.07586302
117	0xbea8c003	-0.32958993
118	0xbf46428d	-0.774453
119	0x3ed0fac5	0.40816322
120	0xbdf9aa8c	-0.12190732
121	0xbd88c3dd	-0.06677983
122	0xbeadd196	-0.33948964
123	0xbe576c23	-0.21037345
124	0xbee6ae74	-0.45054972
125	0xbd096dfb	-0.03355215
126	0xbea6ef3c	-0.32604396
127	0x3ce2db7e	0.027692553
128	0x3f672d37	0.9030337
129	0x3e8ce566	0.27518767
130	0xbed5a6a8	-0.4172871
131	0x3eff11d1	0.4981828
132	0xbf619935	-0.881244
133	0xbe292ff3	-0.16522197
134	0xbf2b3397	-0.66875595
135	0x3e7ec4ee	0.2487981
136	0x3e78f87c	0.2431354
137	0xbe806093	-0.2507368
138	0xbf66965a	-0.9007317
139	0x3f076c0b	0.52899235
140	0xbd509c06	-0.050930046
141	0x3eab1604	0.33415234
142	0xbf6c4f02	-0.92308056
143	0x3da41fc2	0.0801387
144	0xbe0fc272	-0.14039019
145	0x3e22e509	0.15907682
146	0x3e0e2b71	0.13883759
147	0x3de03193	0.109469555
148	0x3ebe5bab	0.37179312
149	0x3ddbb3e8	0.10727674
150	0xbe9b921a	-0.30384904
151	0x3e9d01da	0.30665475
152	0xbe3d0fc4	-0.18463045
153	0x3df2d073	0.11856165
154	0x3e32337a	0.17402449
155	0xbce11ffc	-0.027481072
156	0xbef132c3	-0.4710904
157	0xbe54dd13	-0.20787458
158	0x3de88a63	0.1135452
159	0xbeb2d016	-0.34924382
160	0x3f0143bb	0.50493973
161	0xbe81b307	-0.253319
162	0x3e9c6249	0.30543736
163	0xbcf807ad	-0.030277098
164	0xbef1a23e	-0.47194093
165	0x3dc2cf51	0.09512199
166	0x3e9b96c2	0.30388457
167	0xbedefa31	-0.43550256
168	0xbe088563	-0.13332133
169	0xbd05c700	-0.032660484
170	0x3dd77fbe	0.10522412
171	0x3e8fa70a	0.28057128
172	0x3e93c017	0.2885749
173	0xbe81fc0e	-0.25387615
174	0xbdd3730c	-0.10324678
175	0x3eeb7ccd	0.45993653
176	0x38287c76	4.0170235e-05
177	0x3c91a35d	0.017778093
178	0xbc9ece64	-0.019385524
179	0xbeb57a0d	-0.3544468
180	0xbdfdd8c6	-0.12394862
181	0x3dbc3ba4	0.09191063
182	0xbd9b81eb	-0.07593139
183	0x3e5130fb	0.20428841
184	0xbe7fe627	-0.2499014
185	0xbe12c4c1	-0.14332868
186	0x3e06c57b	0.1316127
187	0x3cd25792	0.025676522
188	0xbf2b14cd	-0.66828614
189	0x3d3fefd5	0.04685958
190	0xbea4c343	-0.32180223
191	0xbec4eb00	-0.3846054
192	0x3d0e9207	0.03480723
193	0x3e52aec3	0.20574479
194	0x3dd98651	0.10621322
195	0xbe7f1aa5	-0.24912508
196	0xbe9e60d4	-0.3093325
197	0xbd88fbe6	-0.06688671
198	0xbe65bda1	-0.22435619
199	0xbecaa720	-0.3958063
200	0xbf355191	-0.70827585
201	0xbf3db50a	-0.7410437
202	0xbdd7acc3	-0.105309986
203	0xbd0f36ec	-0.034964487
204	0xbed967a1	-0.42461875
205	0xbdc5d8d2	-0.09660496
206	0xbd0a6e54	-0.033796623
207	0xbee6dc44	-0.45089924
208	0xbecd27a0	-0.40069294
209	0x3cb85f3c	0.022506349
210	0x3e0da0d2	0.1383088
211	0x3cb3a0ee	0.021927323
212	0xbe81a9b0	-0.25324774
213	0xbe891930	-0.2677703
214	0xbd9dd6a5	-0.07706956
215	0x3ef3feee	0.47655433
216	0x3ea128db	0.31476483
217	0x3e248fcc	0.16070479
218	0x3d0bfc20	0.034175992
219	0xbdaf4f8f	-0.085600965
220	0xbed1d84d	-0.40985337
221	0xbe6e5efa	-0.23278418
222	0x3e09ee5b	0.13469832
223	0xbe48b089	-0.19598593
224	0xbea9a7f7	-0.3313596
225	0xbd8d93b1	-0.069129355
226	0xbcc1bbe8	-0.023649171
227	0x3df5623c	0.11981627
228	0xbe45bcd3	-0.19310312
229	0xbd897a5f	-0.067127936
230	0x3e9d99f0	0.30781507
231	0xbd342a2a	-0.043985523
232	0x3c126581	0.008935333
233	0xbe288e6c	-0.1646058
234	0xbd003b80	-0.031306744
235	0x3ca81bfa	0.020521153
236	0xbe90a1b3	-0.28248367
237	0xbd1f7a85	-0.038935203
238	0x3e09cfd1	0.13458182
239	0x3db8ebc4	0.09029344
240	0xbdce0785	-0.10060028
241	0xbecba557	-0.39774582
242	0x3da1bb4c	0.07897052
243	0x3d2e911b	0.042618852
244	0x3e1ebf45	0.15502651
245	0xbe321a06	-0.1739274
246	0xbdbed1c7	-0.093173556
247	0xbd7cad36	-0.061688624
248	0x3e9cfee0	0.30663204
249	0xbea8b4c1	-0.32950404
250	0xbe97bb19	-0.29634932
251	0x3e7b5909	0.24545683
252	0xbe04ad1f	-0.12956665
253	0xbe13d2c8	-0.14435875
254	0xbe6db8a2	-0.23214963
255	0xbd2cc77c	-0.04218243

conv3/Conv2D_bias f4 [8]
0	0x3da3b7a9	0.07994015
1	0x3da0348c	0.078225225
2	0x3e35069c	0.17678303
3	0x3e1ca1c8	0.1529609
4	0x3da72fe7	0.081634335
5	0xbcea9a1c	-0.028637938
6	0xb9e854d0	-0.00044313679
7	0x3e39f200	0.18158722

conv3/weights f4 [8, 3, 3, 8]
0	0x3ec686e0	0.38774776
1	0xbe200e04	-0.15630347
2	0xbe26bfde	-0.16284129
3	0xbcc58e79	-0.024115788
4	0xbdf03243	-0.11728337
5	0x3d8e7162	0.0695522
6	0x3e4cdb76	0.20005593
7	0xbd96ece1	-0.073694
8	0x3da56900	0.08076668
9	0x3d398eff	0.045302387
10	0xbe08c22c	-0.1335532
11	0xbe4d1136	-0.20026097
12	0x3cc21465	0.023691365
13	0x3e32c951	0.17459609
14	0x3e53e0f2	0.20691279
15	0x3c9f3d0d	0.019438291
16	0xbef1b16a	-0.4720567
17	0x3e41c361	0.18922187
18	0xbe691d98	-0.22765195
19	0xbe12865d	-0.14309068
20	0x3e5b5b17	0.21421467
21	0x3e35f98f	0.1777098
22	0x3d013451	0.031544033
23	0x3d8b8cea	0.068139866
24	0x3c959bb1	0.018262716
25	0xbd838a3a	-0.06422849
26	0xbcdc69c7	-0.026905907
27	0x3e85639e	0.26052564
28	0x3d0f6f37	0.035018172
29	0x3e013a16	0.12619814
30	0xbe86d032	-0.26330715
31	0xbe2672ff	-0.16254805
32	0xbc5011c6	-0.01269955
33	0xbd934b53	-0.07192101
34	0xbda7b61f	-0.08189034
35	0x3d5d1a08	0.053979903
36	0xbe8066b3	-0.25078353
37	0x3e5c8825	0.2153631
38	0xbd4f7def	-0.05065721
39	0xbdf0e0e2	-0.11761643
40	0x3e0e3cee	0.1389043
41	0x3dfab605	0.12241749
42	0xbe976f62	-0.29577166
43	0xbd1d5215	-0.038408358
44	0xbe8eb01e	-0.27868742
45	0x3c22cead	0.009936971
46	0x3e25a57c	0.16176409
47	0x3d7fcaa8	0.062449127
48	0x3f04493a	0.51674235
49	0x3def6a61	0.11690212
50	0xbe0289e6	-0.12747917
51	0xbd6ceb17	-0.057841387
52	0xbbec3084	-0.007207932
53	0xbd1f4224	-0.038881436
54	0xbe51b72a	-0.20480028
55	0xbe4d23b5	-0.20033152
56	0x3e9ce30f	0.30641982
57	0xbd8d842f	-0.06909978
58	0x3d50e55b	0.05099998
59	0xbddfac56	-0.10921542
60	0x3e61746e	0.2201707
61	0x3e5bd0ed	0.21466418
62	0x3d3a49a3	0.04548038
63	0xbddd7130	-0.108126044
64	0x3e4e34f4	0.20137388
65	0xbcdd4e1f	-0.02701479
66	0xbe96200b	-0.29321322
67	0xbc239c36	-0.009985974
68	0xbe3793ba	-0.17927447
69	0x3e35a2a8	0.1773783
70	0x3e43e63b	0.19130795
71	0x3e211744	0.15731531
72	0xbedcd4bc	-0.43131053
73	0xbd0adaee	-0.033900194
74	0xbe843352	-0.25820404
75	0x3dd5c9f9	0.10438914
76	0xbe2dc24a	-0.16968647
77	0x3e83f3bc	0.25771892
78	0x3e39aadc	0.18131584
79	0x3e284e90	0.16436219
80	0xbdc1f1e2	-0.094699636
81	0xbe172af2	-0.14762476
82	0xbe172c54	-0.14763004
83	0x3e1c89b8	0.1528691
84	0x3d4a8bfc	0.049449906
85	0xbeac7f45	-0.3369085
86	0x3e73aca4	0.23796326
87	0xbe325707	-0.17416011
88	0x3d9491a5	0.07254342
89	0xbbeaea88	-0.0071690716
90	0xbccb7e20	-0.024840415
91	0x3e3b2f74	0.1827982
92	0xbc01db54	-0.007925827
93	0x3e596aac	0.21232098
94	0x3c435fad	0.011924666
95	0xbae30bd2	-0.0017322248
96	0xbe9d7c50	-0.30758905
97	0x3dffe899	0.12495536
98	0xbe320991	-0.17386462
99	0xbd30ad36	-0.043133937
100	0xbdce0eb3	-0.100613974
101	0x3db03a98	0.08604926
102	0x3e5156f1	0.20443322
103	0x3e76111b	0.24029963
104	0xbe065f45	-0.1312228
105	0x3dc03c8e	0.0938655
106	0x3d576342	0.052584894
107	0x3c8fe014	0.017562903
108	0x3e5409b6	0.2070683
109	0xbdb7570f	-0.08952152
110	0xbe4619b3	-0.19345741
111	0x3b2a94a9	0.002602855
112	0xbe9e7a3a	-0.30952626
113	0x3e269102	0.16266254
114	0x3e5427f5	0.20718367
115	0xbcdda20a	-0.027054805
116	0x3d22859e	0.03967821
117	0x3e181d8c	0.14855021
118	0xbe2a7ec0	-0.16649914
119	0xbebd2643	-0.36943254
120	0xbe82bf69	-0.2553666
121	0xbc2e5c48	-0.010642119
122	0xbe46c6b0	-0.19411731
123	0xbd0b7ba9	-0.03405348
124	0xbe500021	-0.20312549
125	0xbd95e3b8	-0.073188245
126	0x3e6caca2	0.23112729
127	0x3eb72be5	0.35775676
128	0x3c98628d	0.01860168
129	0xbd51d8c5	-0.05123212
130	0x3e58d33c	0.2117433
131	0xbe0c3b81	-0.13694574
132	0x3da8d6b8	0.08244079
133	0xbe13d624	-0.14437157
134	0xbdf05a33	-0.11735954
135	0x3c5bb9cb	0.013410996
136	0xbe2c8b99	-0.16850127
137	0xbe0f500d	-0.1399538
138	0x3e1f315e	0.15546176
139	0xbe8be7d9	-0.27325323
140	0xbd09671d	-0.033545602
141	0xbc282c8c	-0.010264527
142	0xbe3266a2	-0.17421964
143	0x38d36881	0.000100807294
144	0x3ccd0c06	0.025030147
145	0xbde4b370	-0.111670375
146	0xbb93b315	-0.004507432
147	0xbe507098	-0.20355451
148	0x3e0be2e1	0.13660766
149	0xbe1157d7	-0.14193664
150	0x3d2d3fcb	0.042297166
151	0x3b0085fe	0.0019611116
152	0x3eb49248	0.35267854
153	0x3e4b77e7	0.19869958
154	0x3ba7f406	0.0051255254
155	0xbd850f6c	-0.06497082
156	0x3d8549af	0.06508195
157	0x3e07eac2	0.13273147
158	0x3e2c2eb6	0.16814694
159	0x3e12643e	0.14296052
160	0xbe9d1346	-0.30678767
161	0xbd53da4a	-0.05172185
162	0xbe840f30	-0.25792837
163	0xbeaf66c1	-0.34258083
164	0x3ee8aab1	0.45442727
165	0xbe9e83ae	-0.3095984
166	0xbd199690	-0.037497103
167	0x3ea20dbe	0.3165111
168	0xbe9bcbea	-0.30429012
169	0x3dba828f	0.09106933
170	0x3be53a1e	0.0069954535
171	0x3e3b3efa	0.18285742
172	0xbdd00da2	-0.1015885
173	0xbd6e7fd0	-0.05822736
174	0xbe89190f	-0.2677693
175	0xbd5d464a	-0.05402211
176	0x3e51813d	0.20459457
177	0xbd35cb11	-0.044383112
178	0xbdcc2383	-0.09967711
179	0xbdd83f57	-0.10558956
180	0xbdc269a9	-0.09492809
181	0xbdd2f71a	-0.10301037
182	0xbe084fa6	-0.13311633
183	0x3cfcbed4	0.030852713
184	0x3d8ae881	0.06782628
185	0x3e25234b	0.16126744
186	0xbbeeffc4	-0.007293673
187	0xbea10861	-0.31451705
188	0x3d958c2a	0.07302125
189	0x3d40a783	0.04703475
190	0xbe36ddde	-0.17858073
191	0x3e621120	0.22076845
192	0xbe4bd5f1	-0.19905831
193	0xbe453c6f	-0.19261335
194	0xbe2574f4	-0.16157895
195	0xbe9a7c4a	-0.3017295
196	0xbdd6148e	-0.10453139
197	0xbdec44f3	-0.115365885
198	0xbbb2f9e4	-0.005461918
199	0xbce26dc5	-0.027640233
200	0xbebe243d	-0.37137023
201	0x3d2684ea	0.0406541
202	0x3b43cd45	0.002987699
203	0x3e711039	0.23541345
204	0x3dbd81d7	0.092532806
205	0x3a48b779	0.0007656734
206	0xbda548da	-0.08070536
207	0x3e14cd12	0.14531353
208	0xbe3a1205	-0.18170936
209	0x3ddec425	0.10877255
210	0xbdf3551e	-0.11881469
211	0x3d207cb5	0.03918143
212	0xbdbe8ea2	-0.09304549
213	0x3e529900	0.20566177
214	0xbe773e51	-0.24144866
215	0xbd7e0d67	-0.0620245
216	0x3d0ae13e	0.033906214
217	0xbeb04841	-0.34430125
218	0xbec4fb88	-0.38473153
219	0x3e36bff4	0.17846662
220	0xbefb88ba	-0.49127752
221	0xbd644dbe	-0.055738203
222	0xbe82f580	-0.25577927
223	0xbd6a11f4	-0.057146028
224	0x3e47c4ef	0.19508718
225	0xbe9102bf	-0.28322408
226	0xbed89d38	-0.42307448
227	0xbda9ce5f	-0.08291315
228	0xbeb866c6	-0.3601591
229	0xbee076eb	-0.43840727
230	0xbe62942d	-0.22126837
231	0xbca520eb	-0.020157298
232	0xbe209b18	-0.15684164
233	0xbea7780c	-0.32708776
234	0xbf3a9a51	-0.7289172
235	0xbe5b572b	-0.2141997
236	0xbe19c5cd	-0.15016861
237	0xbed5ea35	-0.41780248
238	0xbe88c911	-0.26715901
239	0x3c2de2ec	0.010613184
240	0x3c33530b	0.010945092
241	0x3d16f3fa	0.036853768
242	0xbc8df6b9	-0.01732956
243	0x3d8822c8	0.06647259
244	0xbdae9d90	-0.085261464
245	0xbe1316ec	-0.14364213
246	0x3e3f812d	0.1870162
247	0x3cfcc9e7	0.030857993
248	0x3e9626dc	0.29326522
249	0x3e5dbeda	0.21654835
250	0x3ecb9396	0.39761037
251	0x3e87a013	0.26489314
252	0xbdbcdfe0	-0.09222388
253	0x3e6de821	0.23233081
254	0x3e5ccf51	0.2156346
255	0x3d5d4bd6	0.0540274

conv4/Conv2D_bias f4 [16]
0	0x3e4c90bd	0.19977088
1	0x3d21b737	0.039481368
2	0x3d0b1d4f	0.033963498
3	0xbd5eb800	-0.054374695
4	0x3dcc8621	0.099865206
5	0x3caacc42	0.02084935
6	0xbcbd1305	-0.023080358
7	0xbd92da33	-0.071705244
8	0x3d9d9c7e	0.07695864
9	0xbc356f2c	-0.011073869
10	0x3de0ef68	0.10983163
11	0x3e3a9aa3	0.18223052
12	0x3d81795d	0.06321976
13	0xbda7e446	-0.081978366
14	0xbcfd5473	-0.030924058
15	0x3e0b072b	0.13576953

conv4/weights f4 [16, 3, 3, 8]
0	0xbdc783f7	-0.09741967
1	0xbdee52f6	-0.11636917
2	0x3d92399c	0.07139894
3	0x3e584cd1	0.21123053
4	0xbbf88378	-0.0075840317
5	0x3bbca2f1	0.005756729
6	0x3d559e3c	0.052152857
7	0x3d1373fd	0.035999287
8	0xbdc3878f	-0.0954734
9	0xbd9465ac	-0.07245955
10	0x3d046641	0.03232408
11	0xbf365316	-0.7122053
12	0x3e12095c	0.14261383
13	0xbe5febda	-0.21867314
14	0xbe6b0f10	-0.22954965
15	0x3cafcf4f	0.021461157
16	0xbdaee6d0	-0.08540118
17	0x3e9125aa	0.28349048
18	0xbe8b5723	-0.27214918
19	0x3e9c97c4	0.30584538
20	0xbe0e79af	-0.13913606
21	0x3b86afd3	0.0041103153
22	0x3dd59a1d	0.104297854
23	0xbe98d4b1	-0.2984977
24	0x3e8d4322	0.2759028
25	0xbcd05870	-0.025432795
26	0xbd039cb6	-0.032131873
27	0xbe6b20f7	-0.22961794
28	0xbd2307a3	-0.039802205
29	0xbc57282d	-0.013132137
30	0x3c4e963d	0.012609062
31	0xbe86fb23	-0.26363477
32	0xbe2c98cf	-0.16855167
33	0xbc59e419	-0.013299012
34	0xbd322db1	-0.043500606
35	0xbee15d87	-0.44016668
36	0xbe05a8b1	-0.13052632
37	0xbdff9593	-0.12479701
38	0x3dd91a4f	0.10600721
39	0xbe0d15b1	-0.13777806
40	0x3dcab8a0	0.09898496
41	0xbdd4b94b	-0.10386904
42	0x3df0794e	0.11741887
43	0x3db94716	0.09046762
44	0xbe62ea85	-0.22159775
45	0x3e04ec19	0.12980689
46	0xbe3d8279	-0.18506803
47	0x3e3fae23	0.18718772
48	0xbe4b76eb	-0.19869582
49	0xbcab8990	-0.020939618
50	0xbdf23d08	-0.11828047
51	0xbd5ead98	-0.05436477
52	0xbe62d364	-0.22150952
53	0xbe9c8380	-0.30569077
54	0xbe15f7e4	-0.14645344
55	0xbe034488	-0.12819111
56	0xbeae7d69	-0.34080055
57	0xbdd23fcd	-0.10266075
58	0x3e5163ae	0.20448181
59	0xbe675a1f	-0.22592972
60	0x3e384b92	0.17997578
61	0xbe15bd08	-0.14622891
62	0xbdd58b8a	-0.104270056
63	0x3d85a2cf	0.06525194
64	0xbdf8d7b0	-0.12150514
65	0xbe88960b	-0.26676974
66	0xbdcc7345	-0.099829234
67	0xbece0bee	-0.40243477
68	0x3bc7b065	0.006094026
69	0xbdb1a055	-0.08673159
70	0xbdebf902	-0.11522104
71	0xbe80fb31	-0.25191644
72	0x3ee7a9ad	0.4524664
73	0xbe8cc691	-0.27495244
74	0x3e33f522	0.1757398
75	0x3d84daf0	0.064870715
76	0x3d121760	0.035666823
77	0xbeeaa8ac	-0.4583181
78	0xbea8a384	-0.32937253
79	0xbdc1ced6	-0.09463279
80	0xbdc2a4d2	-0.09504093
81	0xbe26528e	-0.1624243
82	0x3e409e8b	0.1881048
83	0xbc91fd97	-0.017821116
84	0xbe42fae2	-0.19041017
85	0x3e2f4fc4	0.17120272
86	0x3e7d5fc7	0.24743567
87	0xbe957ec0	-0.29198265
88	0xbec46402	-0.3835755
89	0x3e101b5b	0.14072935
90	0xbdf2def1	-0.11858929
91	0x3ea2e919	0.31818464
92	0xbebe8ef0	-0.37218428
93	0x3d9ab521	0.07554079
94	0x3ebe92a2	0.37221247
95	0xbcd7d1ee	-0.02634522
96	0xbd9fad49	-0.077967234
97	0x3dfef6a3	0.12449386
98	0x3df6bd26	0.12047796
99	0x3ee20392	0.4414335
100	0x3dbf9c51	0.09355987
101	0xbe8ef8a1	-0.27924064
102	0x3dd49d73	0.103815936
103	0x3cffb9c4	0.03121651
104	0x3d835ff4	0.06414786
105	0xbf167355	-0.5876973
106	0xbcd89bed	-0.026441539
107	0x3e9f7dff	0.31150815
108	0x3e093a32	0.13401106
109	0xbd23ec8c	-0.04002051
110	0xbefbdf7b	-0.4919394
111	0x3e706d2c	0.23479146
112	0xbe99dbd3	-0.30050525
113	0x3d0659d7	0.03280052
114	0xbde96c0e	-0.11397563
115	0xbf758fe7	-0.959227
116	0xbea5974c	-0.32341993
117	0x3e17566a	0.14779058
118	0x3eb422d2	0.35182816
119	0xbd07903f	-0.03309655
120	0x3e29be73	0.16576557
121	0x3ca49fa4	0.020095654
122	0xbd1567cf	-0.036475953
123	0x3c0bd343	0.008534255
124	0x3e399152	0.18121842
125	0xbe400bbf	-0.18754481
126	0xbed770cf	-0.42078254
127	0x3d851019	0.06497211
128	0x3c821762	0.01588029
129	0x3e7f8b46	0.24955472
130	0x3d1790dc	0.037003383
131	0x3e5daafa	0.21647254
132	0x3ccf174f	0.02527967
133	0x3d5d2d03	0.053998005
134	0xbf226a47	-0.63443416
135	0xbe094fab	-0.13409297
136	0xbe595345	-0.21223171
137	0x3e0e1286	0.13874254
138	0x3e2c6e36	0.16838917
139	0x3e0feb5e	0.14054629
140	0xbe783af6	-0.24241242
141	0xbe0b2f1b	-0.13592188
142	0xbf0a1ff4	-0.53955007
143	0x3e03c775	0.12869056
144	0xbe043f05	-0.12914665
145	0xbdb5932b	-0.08865961
146	0xbc976e42	-0.018485192
147	0xbde20b42	-0.110373035
148	0xbddb8513	-0.10718741
149	0xbe36ede2	-0.17864183
150	0xbf049a3c	-0.5179784
151	0x3e818d3d	0.2530307
152	0xbe89b874	-0.2689854
153	0x3e94872d	0.2900938
154	0xbe3675e1	-0.17818405
155	0x3e1df4f3	0.15425472
156	0xbdca0dc9	-0.098659106
157	0xbe00e754	-0.12588245
158	0x3e64108e	0.2227194
159	0xbe01326e	-0.12616894
160	0xbcda87e6	-0.02667613
161	0x3dcc0d62	0.0996349
162	0xbd34b3ba	-0.044116713
163	0x3d471248	0.04860142
164	0x3e1695ce	0.14705583
165	0x3ca65e29	0.020308571
166	0x3e598649	0.21242632
167	0x3bf6998f	0.00752563
168	0x3d9c5973	0.076342486
169	0xbdf07025	-0.1174014
170	0xbe0d2b5d	-0.13786073
171	0xbdcf8910	-0.101335645
172	0x3dd04c34	0.101707846
173	0x3d3ef2a7	0.04661813
174	0xbed019d7	-0.40644714
175	0x3c063074	0.008190263
176	0x3e391149	0.18073
177	0x3c41d0c8	0.0118295625
178	0xbe4dbe2c	-0.20092076
179	0x3eeca8f1	0.46222642
180	0x3e2cce94	0.16875678
181	0x3d9944c2	0.07483818
182	0xbe9d153e	-0.3068027
183	0x3eac3d2b	0.33640417
184	0x3e108ede	0.14117
185	0x3e91c24a	0.28468543
186	0x3dcf44c2	0.101205364
187	0xbe94ac98	-0.2903793
188	0xbe625582	-0.22102931
189	0x3da974c1	0.08274222
190	0xbcf8c077	-0.030365212
191	0x3e05b8d8	0.13058794
192	0x3e8287d6	0.2549426
193	0xbe0cd102	-0.13751605
194	0x3df27acb	0.11839827
195	0xbc96b667	-0.018397523
196	0x3e2ae0f1	0.16687371
197	0xbeecb788	-0.46233773
198	0x3e745a92	0.23862675
199	0xbea4902e	-0.3214125
200	0x3d8d94aa	0.06913121
201	0xbe9f814e	-0.3115334
202	0x3c8e72fd	0.017388815
203	0xbc8753b2	-0.016519401
204	0x3dbc22c0	0.091863155
205	0x3e0fc9fc	0.14041895
206	0xbe8c8aa0	-0.27449512
207	0xbf43bc5f	-0.76459306
208	0x3e3326ab	0.1749522
209	0xbebdab6d	-0.3704485
210	0xbdc20a15	-0.09474579
211	0x3ea835da	0.32853585
212	0xbdb92db3	-0.090419196
213	0x3d89348b	0.06699475
214	0xbf1983b4	-0.5996659
215	0x3e35930a	0.17731872
216	0xbe9216f8	-0.2853315
217	0xbef8c2b2	-0.4858604
218	0x3dfbc672	0.1229371
219	0xbede6c25	-0.43441883
220	0xbe420884	-0.18948561
221	0x3de7ee89	0.11324794
222	0xbd8b0f6c	-0.06790051
223	0xbf17a48a	-0.5923544
224	0x3e596c2e	0.21232674
225	0xbd6e9fcf	-0.058257874
226	0x3f0e80d0	0.556653
227	0xbd1ecb1e	-0.038767926
228	0xbe24926b	-0.16071479
229	0xbbf6dd5b	-0.007533712
230	0x3e4f0cc3	0.20219712
231	0x3ee1c3f7	0.44094822
232	0x3d575c94	0.052578524
233	0xbee7c8e7	-0.45270464
234	0x3ead68fd	0.33869162
235	0xbe6fe543	-0.234273
236	0xbeea3cfc	-0.45749652
237	0xbcdb0c60	-0.0267393
238	0xbeab84dc	-0.334998
239	0x3e883c4b	0.266085
240	0xbe9994f1	-0.29996446
241	0xbe38fe1f	-0.1806569
242	0x3e3dd230	0.18537211
243	0xbeaa0079	-0.33203486
244	0xbe992130	-0.29908133
245	0xbe07236f	-0.1319711
246	0x3e3b3f40	0.18285847
247	0xbed354dd	-0.41275683
248	0xbde67a45	-0.1125379
249	0xbe99a593	-0.30009136
250	0xbdd1bb14	-0.102407604
251	0x3d2e8a85	0.04261257
252	0xbf069d1c	-0.5258348
253	0xbdda25f4	-0.1065177
254	0xbe51a319	-0.20472373
255	0xbefec934	-0.4976288

conv5/Conv2D_bias f4 [16]
0	0x3dcc745e	0.09983133
1	0x3d8967f9	0.06709284
2	0x3da5c867	0.08094864
3	0x3d5d7c3d	0.05407356
4	0x3cb4d60e	0.022074725
5	0x3ca99fa2	0.020706002
6	0xbc4bf3e3	-0.012448284
7	0x3dc32a1b	0.09529515
8	0x3d57f41b	0.05272303
9	0x3d8a96f4	0.06767073
10	0x3df4c668	0.119519055
11	0x3cd60ea3	0.026130026
12	0x3e2fe513	0.17177229
13	0x3c45dcc0	0.012076557
14	0x3d86ff1f	0.06591629
15	0x3c364095	0.011123796

conv5/weights f4 [16, 3, 3, 16]
0	0xbdc535d3	-0.09629407
1	0x3dee85d3	0.11646619
2	0x3c4137fd	0.011793134
3	0xbe26c702	-0.16286853
4	0xbc220d87	-0.0098909205
5	0xbe4a5cf1	-0.19762017
6	0x3e247daf	0.1606357
7	0xbe1c042d	-0.15235968
8	0xbefb5694	-0.4908949
9	0xbe21900f	-0.1577761
10	0xbe913a3b	-0.2836474
11	0xbe3746fd	-0.17898174
12	0xbed074a3	-0.40713987
13	0xbc36104f	-0.011112287
14	0x3db0f739	0.08640904
15	0xbcb698df	-0.022289691
16	0xbc876e12	-0.016531978
17	0x3e20ea0d	0.15714283
18	0xbe04bcbb	-0.1296262
19	0x3e2e0139	0.16992654
20	0x3d771e96	0.060331903
21	0x3d950890	0.07277024
22	0x3e07407a	0.1320819
23	0xbcdb2d70	-0.026755065
24	0xbf07ff6c	-0.5312412
25	0xbe8be7bf	-0.27325246
26	0x3a47a9d2	0.0007616553
27	0xbe8893ea	-0.2667535
28	0xbd2e9c8b	-0.04262976
29	0x3d98f0b0	0.074677825
30	0xbbda9016	-0.0066700084
31	0xbe0b3944	-0.13596064
32	0x3ca37b25	0.01995618
33	0x3e2ab9b1	0.16672398
34	0xbe569113	-0.20953779
35	0xbd29726d	-0.04136889
36	0xbd4754c4	-0.048664823
37	0xbb337fd3	-0.0027389422
38	0xbdd1ac2a	-0.10237916
39	0xbe7bbfa5	-0.24584825
40	0xbf004ba1	-0.501154
41	0xbeb63d70	-0.35593748
42	0xbdda841a	-0.106697276
43	0xbc5e3c28	-0.013564147
44	0x3cd838a3	0.026394194
45	0x3d82e7ab	0.063918434
46	0x3d4f0f06	0.050551437
47	0xbebe0eda	-0.37120706
48	0xbe0b75dd	-0.1361918
49	0x3dfc48d0	0.123185754
50	0xbe25cc5f	-0.16191243
51	0xbe64ea15	-0.2235492
52	0x3e6099f4	0.21933728
53	0x3e21b61a	0.15792122
54	0xbe843ac7	-0.25826094
55	0xbf149048	-0.58032656
56	0xbe316739	-0.17324533
57	0xbf07737d	-0.52910596
58	0x3c9840ca	0.018585581
59	0xbdc207d2	-0.09474148
60	0xbde1461d	-0.10999701
61	0xbe141ae5	-0.14463384
62	0xbd8ab4e0	-0.067727804
63	0x3e18a421	0.1490636
64	0x3d9cdd56	0.07659404
65	0x3d29d291	0.041460577
66	0x3c38845b	0.011262025
67	0x3e064fc8	0.13116372
68	0x3e708bed	0.23490877
69	0xbd5b8e74	-0.05360265
70	0xbdae3a86	-0.08507256
71	0x3daa9de3	0.08330896
72	0xbd9d127c	-0.07669541
73	0xbefb1722	-0.49041086
74	0x3d807061	0.062714346
75	0x3e0b570c	0.13607424
76	0x3d1be4a2	0.038059838
77	0x3d28ccea	0.041211046
78	0xbd472c86	-0.048626445
79	0x3e4ccd6b	0.20000236
80	0x3e393f69	0.18090595
81	0x3e801b24	0.25020707
82	0xbeb99c0f	-0.36251876
83	0xbc24cad6	-0.0100581255
84	0x3d6e1e98	0.058134645
85	0x3d281d46	0.041043542
86	0xbd099a29	-0.033594284
87	0x3e33e533	0.17567901
88	0xbe2f7bd7	-0.17137085
89	0xbed80a17	-0.42195198
90	0xbd3ba9b0	-0.045816123
91	0x3eb1f416	0.34756535
92	0x3dffa168	0.12481958
93	0x3db47fa2	0.088134065
94	0xbd907723	-0.070539735
95	0xbcc74dce	-0.024329092
96	0x3d81f158	0.06344861
97	0x3c127afc	0.008940455
98	0xbe806cac	-0.2508291
99	0xbf237218	-0.6384597
100	0x3ddce899	0.10786552
101	0x3e1bc4d1	0.15211798
102	0xbcfec6f8	-0.031100735
103	0xbe3fc21d	-0.18726392
104	0xbe42202a	-0.18957582
105	0xbf7057a7	-0.93883747
106	0x3e96efe7	0.29479906
107	0x3e0753c5	0.1321555
108	0x3dac2eec	0.08407387
109	0xbed42104	-0.4143144
110	0xbda3a98f	-0.07991325
111	0x3e84b8fa	0.25922376
112	0x3e9ad2e6	0.30239028
113	0x3d9a26a3	0.075269006
114	0x3d5039d9	0.050836418
115	0xbf114081	-0.5673905
116	0xbd2ed555	-0.042683918
117	0xbe651aac	-0.22373456
118	0xbe201826	-0.15634212
119	0xbe99288a	-0.2991374
120	0xbdafc113	-0.08581748
121	0xbf862c5b	-1.0482286
122	0x3cca7c56	0.024717491
123	0x3c498e0c	0.012301933
124	0x3dbb4e74	0.09145823
125	0xbea9e6c3	-0.3318387
126	0xbdb331b2	-0.08749713
127	0x3e7d442a	0.24733034
128	0x3ee2dfb2	0.4431129
129	0x3e3a3a24	0.18186241
130	0xbe4be114	-0.19910079
131	0xbe091ee0	-0.13390684
132	0x3e5a19c0	0.21298885
133	0x3e788aad	0.2427165
134	0xbd2c44be	-0.042057745
135	0xbe1bc73c	-0.1521272
136	0x3c7d10bc	0.015445884
137	0xbf6602ec	-0.8984821
138	0x3d12947d	0.03578614
139	0x3ddfd74b	0.10929736
140	0xbbf90008	-0.0075988807
141	0x3d79d9b7	0.060998645
142	0x3c7154ce	0.014729692
143	0xbdc77b2c	-0.0974029
144	0x3db99657	0.09061878
145	0xbcbee557	-0.023302717
146	0x3e6fab5b	0.2340521
147	0xbe2f1eaf	-0.17101549
148	0x3e0e3503	0.1388741
149	0xbd94c1eb	-0.072635494
150	0xbed791a9	-0.42103317
151	0xbcb62632	-0.02223501
152	0xbda432a2	-0.0801747
153	0xbe0acb53	-0.13554125
154	0xbe30a7c4	-0.17251498
155	0x3e4b2d79	0.19841565
156	0xbb0919d7	-0.0020919943
157	0xbea653a6	-0.32485694
158	0xbeb2bed6	-0.3491122
159	0x3dc1149d	0.0942776
160	0x3c6567fb	0.014001842
161	0x3e355b07	0.17710505
162	0x3c280c83	0.010256889
163	0xbe88d1a1	-0.26722434
164	0xbda8f52f	-0.0824989
165	0xbe88e831	-0.26739648
166	0xbe59f016	-0.21282992
167	0xbe284a62	-0.16434625
168	0x3d891131	0.06692732
169	0x3e1476b2	0.14498404
170	0xbb653580	-0.0034974515
171	0x3dad2471	0.08454216
172	0x3e39958c	0.18123454
173	0xbd3d4322	-0.0462066
174	0xbc9d7a43	-0.019223338
175	0x3e45d2f6	0.19318756
176	0x3e6a6f17	0.2289394
177	0xbcd9a039	-0.026565658
178	0xbe876a23	-0.26448163
179	0xbee6fb63	-0.45113668
180	0x3e1757b7	0.14779554
181	0x3dd7609e	0.10516475
182	0xbe47e440	-0.19520664
183	0xbc55029d	-0.013001111
184	0x3d67b00c	0.056564376
185	0xbc62f715	-0.013852854
186	0xbe8f6ac1	-0.28011134
187	0xbdd6c1ba	-0.10486169
188	0xbe11d56f	-0.14241575
189	0xbdf0628c	-0.11737546
190	0xbe59234d	-0.21204872
191	0xbd6be693	-0.05759294
192	0x3e9bce36	0.30430764
193	0xbe29b248	-0.16571915
194	0x3cbfc79f	0.023410616
195	0xbe1bdc6d	-0.15220805
196	0xbec412e6	-0.38295668
197	0xbe1560cc	-0.14587706
198	0xbe5a2c51	-0.21305968
199	0xbe20c25d	-0.15699144
200	0x3e3d0eb8	0.18462646
201	0xbc8f759e	-0.017512139
202	0xbe048ba4	-0.12943894
203	0x3d48f108	0.04905799
204	0x3e0bf89f	0.1366906
205	0xbd2c242c	-0.042026684
206	0xbccaa238	-0.024735555
207	0x3d06eeba	0.03294251
208	0x3ec46d93	0.38364848
209	0x3e40eabd	0.18839546
210	0xbcb0cee1	-0.021583023
211	0xbcc46f84	-0.023978956
212	0xbebdb650	-0.37053156
213	0x3c00cfd3	0.007862049
214	0xbe834e75	-0.25645795
215	0xbd94ec2f	-0.07271611
216	0x3dd21778	0.102583826
217	0xbe402e26	-0.18767604
218	0xbd32d507	-0.04366019
219	0x3e2ed743	0.17074303
220	0xbd46ce77	-0.048536744
221	0x3c03f287	0.0080534285
222	0xbe3f7ab7	-0.18699156
223	0xbc87c2b1	-0.016572328
224	0x3d2c011a	0.041993238
225	0x3da9c9b4	0.08290425
226	0xbe0cfd4c	-0.137685
227	0x3d797fd7	0.060912933
228	0x3d81e5d8	0.06342667
229	0x3e95b3da	0.29238778
230	0x3e009b16	0.1255916
231	0xbe23f096	-0.16009745
232	0xbd6b15b5	-0.05739375
233	0xbe459f94	-0.19299155
234	0xbd2edfe4	-0.042693987
235	0x3dc3593e	0.09538506
236	0xbd01ac4c	-0.031658456
237	0x3dbc3796	0.0919029
238	0xbcef8d3b	-0.029242149
239	0x3d090fa6	0.03346219
240	0x3d3162ea	0.043307222
241	0xbe0659bb	-0.13120167
242	0x3e952d7a	0.29136258
243	0xbef1d1bf	-0.47230336
244	0xbee458c5	-0.44598976
245	0xbdf47f58	-0.119383514
246	0xbe97053f	-0.2949619
247	0xbdf57005	-0.11984257
248	0x3e3bd630	0.18343425
249	0x3d778185	0.060426254
250	0xbe6833bf	-0.2267599
251	0x3c1f1773	0.009710181
252	0xbe3cb2f0	-0.18427634
253	0x3e268faa	0.16265741
254	0x3e1cba6c	0.1530549
255	0xbeda4701	-0.42632297

conv6/Conv2D_bias f4 [32]
0	0x3e11daf4	0.1424368
1	0x3db5ec84	0.088830024
2	0x3dfaebe0	0.12252021
3	0x3d812b2d	0.06307063
4	0xbd4fa094	-0.05069025
5	0x3b7e38bd	0.0038791143
6	0x3d8e207b	0.06939789
7	0x3a8cbad6	0.0010736834
8	0x3dc8be53	0.098019265
9	0x3dea5ff0	0.1144408
10	0x3dd41b5b	0.1035678
11	0x3d2cd841	0.042198423
12	0xbdc9f849	-0.0986181
13	0x3d72104a	0.059097566
14	0xbd3c98e1	-0.046044234
15	0x3cecc694	0.028903283
16	0x3e0d398b	0.13791482
17	0x3e1a3072	0.15057543
18	0x3da5bec1	0.08093024
19	0x3e0f2c1f	0.13981675
20	0x3e4dc916	0.2009624
21	0xbdce1164	-0.10061911
22	0x3d8064af	0.06269204
23	0x3e2876a4	0.16451508
24	0xbdb2cc49	-0.087303706
25	0x3d794fbe	0.060867064
26	0x3dbfa30c	0.093572706
27	0x3da6ba23	0.081409715
28	0x3d9e46c6	0.07728343
29	0xbd45803e	-0.048218004
30	0x3d8da3a4	0.069159776
31	0x3e3f228f	0.18665527

conv6/weights f4 [32, 3, 3, 16]
0	0xbe5dd383	-0.21662717
1	0x3db018e2	0.08598496
2	0x3c97387b	0.01845955
3	0xbf16f5fe	-0.58969104
4	0x3d89393f	0.06700372
5	0xbecf7090	-0.40515566
6	0xbd9df08a	-0.07711895
7	0xbd4fa644	-0.050695673
8	0x3e182865	0.1485916
9	0xbeb2e943	-0.3494359
10	0xbe141a94	-0.14463264
11	0xbe2fdcab	-0.17174022
12	0xbab524ae	-0.0013820136
13	0xbe568acf	-0.20951389
14	0x3ea4f8cf	0.32221076
15	0xbebc044f	-0.36722037
16	0x3e6e8f28	0.23296797
17	0x3dcd7c96	0.100335285
18	0xbe2806b7	-0.16408812
19	0xbd8b2292	-0.06793703
20	0xbd28e227	-0.0412313
21	0x3e85d221	0.26136878
22	0xbe52a405	-0.20570381
23	0xbdb30c5b	-0.08742591
24	0xbca73ae4	-0.020413823
25	0x3c5f1b98	0.013617419
26	0xbe177add	-0.14792962
27	0xbd2662da	-0.040621616
28	0x3da04fef	0.07827746
29	0x3e027dd6	0.12743315
30	0x3e9d71ea	0.30750972
31	0xbdb895f7	-0.090129785
32	0x3cd80880	0.02637124
33	0x3da2c9e2	0.07948662
34	0xbc83000e	-0.015991237
35	0xbe841cd7	-0.25803253
36	0xbde42586	-0.111399695
37	0xbe15a583	-0.14613919
38	0xbd29017b	-0.041261178
39	0xbeb8cd42	-0.360941
40	0x3e6dc654	0.23220187
41	0xbe0a69d8	-0.13516939
42	0x3df0139f	0.117224924
43	0xbe46fd4a	-0.1943256
44	0x3e1005fa	0.1406478
45	0xbe90bf74	-0.28271067
46	0x3c7c2f63	0.015392157
47	0xbe190003	-0.1494141
48	0x3d7eda56	0.06221994
49	0x3d462cc9	0.048382554
50	0xbe23b931	-0.15988614
51	0xbea5762d	-0.32316723
52	0x3e042725	0.12905557
53	0xbe9d2879	-0.3069494
54	0xbe18bba3	-0.14915328
55	0xbd9c4f6d	-0.07632337
56	0x3dd3339b	0.10312577
57	0xbdc9c478	-0.098519266
58	0xbb45fe11	-0.003021125
59	0xbdfd603f	-0.12371873
60	0xbcd43c6b	-0.025907716
61	0xbb1543f9	-0.002277611
62	0x3e4b8223	0.19873862
63	0xbe208568	-0.1567589
64	0xbb72814e	-0.003700334
65	0x3e0bb7cc	0.13644332
66	0xbced3068	-0.028953746
67	0xbe5ebe23	-0.21752219
68	0x3e4ddce5	0.20103796
69	0x3e757a6e	0.23972484
70	0xbdc4ad10	-0.096033216
71	0x3c0297f1	0.007970796
72	0x3e20c6d4	0.15700847
73	0xbd33007b	-0.04370163
74	0xbdbefac9	-0.09325177
75	0x3d82d2d2	0.06387867
76	0x3e316ea9	0.1732737
77	0x3e387baa	0.18015924
78	0xbbfd8de1	-0.0077378605
79	0xbe0b2fb5	-0.13592418
80	0x3d8bacf4	0.068200976
81	0x3dc71a52	0.09721817
82	0xbe354cfd	-0.1770515
83	0xbe1ea9af	-0.15494417
84	0x3da83803	0.082138084
85	0x3aa4194b	0.0012519745
86	0xbe297490	-0.16548371
87	0xbd559c27	-0.05215087
88	0x3e019ab6	0.12656674
89	0xbe97e7b9	-0.29668978
90	0x3e18893e	0.14896104
91	0x3e26c01d	0.16284223
92	0x3e6a8254	0.22901279
93	0xbe244489	-0.16041769
94	0xbd8f37dc	-0.06993076
95	0xbda5d235	-0.080967344
96	0xbdd0ae5c	-0.101895064
97	0xbd847c83	-0.06469061
98	0xbdc92a4c	-0.098225206
99	0xbe6eef7a	-0.2333354
100	0xbe0c6e3b	-0.13713925
101	0xbec83093	-0.3909956
102	0x3ddf70cd	0.10910187
103	0xbd9c4d96	-0.07631986
104	0x3dd2ab81	0.10286618
105	0xbe5e89df	-0.21732281
106	0xbb9909ae	-0.0046703434
107	0xbd0e1ebd	-0.034697283
108	0xbe95becd	-0.29247132
109	0xbea83f83	-0.32860956
110	0xbe20e8d3	-0.15713815
111	0xbdaad41f	-0.0834124
112	0xbc4ac3ce	-0.012375785
113	0xbd7703cb	-0.06030635
114	0xbd5cebc7	-0.053935792
115	0x3e816bf9	0.2527769
116	0xbe159b53	-0.14610033
117	0xbe7c512a	-0.24640337
118	0x3d876dfa	0.06612773
119	0xbe28404d	-0.16430779
120	0x3cb8de9c	0.022567086
121	0xbdfb7d2d	-0.12279735
122	0x3e16692b	0.14688556
123	0x3bb84436	0.0056233658
124	0x3e61b568	0.22041857
125	0xbcb8c1e4	-0.022553392
126	0xbe596615	-0.21230347
127	0xbdd5ced9	-0.10439844
128	0xbd03ddee	-0.03219407
129	0xbd73816d	-0.059449602
130	0xbda00bff	-0.07814788
131	0xbec69754	-0.3878733
132	0xbd0319d5	-0.032007057
133	0xbe8738fc	-0.26410663
134	0xbda7028c	-0.08154783
135	0x3d91d4ac	0.07120642
136	0xbd4beada	-0.04978452
137	0xbd8e15a8	-0.06937724
138	0x3e532275	0.20618613
139	0x3d8ca22e	0.06866871
140	0xbdfdad34	-0.123865515
141	0xbeb36448	-0.35037446
142	0xbd918015	-0.07104508
143	0x3b8867ef	0.0041627805
144	0xbe0d017c	-0.13770097
145	0x3bd9d789	0.0066480082
146	0x3dea3a80	0.11436939
147	0x3ec345f9	0.38139322
148	0xbe1b34fb	-0.15156929
149	0xbd8d85a2	-0.06910254
150	0xbe3ca248	-0.1842128
151	0xbd95fb59	-0.073233314
152	0x3d863efc	0.06554982
153	0xbe503be0	-0.2033534
154	0xbd6a77fa	-0.057243325
155	0xbe79f337	-0.24409185
156	0xbe1b0ee5	-0.151424
157	0x3d88e0c9	0.06683499
158	0xbd5be408	-0.053684264
159	0xbe484e80	-0.19561195
160	0xbd98659b	-0.07441255
161	0x3d467341	0.04844976
162	0x3ddfe933	0.10933151
163	0xbdad11fc	-0.08450696
164	0x3b2e44bc	0.0026591262
165	0xbdb6e759	-0.08930845
166	0xbd11ae6a	-0.035566725
167	0xbe54be6e	-0.20775768
168	0xbe20b29c	-0.15693134
169	0x3ce1cf00	0.027564526
170	0xbe2627ed	-0.16226168
171	0xbe4dea04	-0.20108801
172	0xbde1c51e	-0.11023925
173	0xbe2872d7	-0.16450058
174	0x3e0489c7	0.12943183
175	0xbe18e542	-0.14931205
176	0x3dd46cff	0.10372352
177	0x3de2744f	0.1105734
178	0xbe263bf9	-0.16233815
179	0xbdcd9bce	-0.10039483
180	0xbc72c00d	-0.014816296
181	0xbc6e7a78	-0.014555566
182	0xbb65ba40	-0.003505364
183	0x3b056e71	0.0020360018
184	0xbc10259d	-0.00879803
185	0x3d4feebb	0.05076478
186	0x3d2f7d0d	0.042843867
187	0xbe5b9388	-0.21442997
188	0xbdfa0e51	-0.12209762
189	0xbe9e5412	-0.30923516
190	0xbda33950	-0.07969916
191	0xbcb404aa	-0.02197488
192	0xbe1c7bce	-0.15281603
193	0xbd6a5fa1	-0.057220105
194	0x3d4644ab	0.04840533
195	0x3ec286c8	0.37993455
196	0xbe430924	-0.19046456
197	0xbe69110f	-0.22760414
198	0xbdaf6e4a	-0.08565958
199	0x3d82af5b	0.06381103
200	0x3dfaa9d4	0.122394234
201	0xbd2e34bc	-0.04253076
202	0xbcaff3ff	-0.021478651
203	0xbdf9240d	-0.12165079
204	0x3dcc0914	0.09962669
205	0x3de2f603	0.11082079
206	0x3dd6d3da	0.10489626
207	0xbe7abace	-0.24485323
208	0xbb5a74fa	-0.0033333884
209	0x3d80f653	0.062969826
210	0x3e8b9bd4	0.27267325
211	0x3cf252f0	0.029580563
212	0xbdd6b349	-0.10483415
213	0x3dde76a3	0.10862472
214	0x3d7c9a38	0.061670512
215	0x3c69bc03	0.014266017
216	0xbd9dacaa	-0.07698949
217	0xbe2f7e11	-0.17137934
218	0xbc9824ec	-0.018572293
219	0xbe2981ed	-0.16553469
220	0x3e0a7aca	0.13523403
221	0xbc72e6c6	-0.0148255285
222	0x3cf21b0b	0.02955391
223	0x3cd7ee01	0.026358606
224	0x3d81af29	0.06332237
225	0xbd46b671	-0.048513833
226	0x3cd49d7c	0.025954
227	0xbe311c42	-0.17295936
228	0xbd08d1f7	-0.033403363
229	0xbe6a9e79	-0.22912015
230	0xbe33fe81	-0.17577554
231	0x3e04f497	0.12983929
232	0x3c1fabae	0.0097455215
233	0xbdbdb438	-0.092628896
234	0xbd13b5b9	-0.036061976
235	0xbecd36c4	-0.40080845
236	0x3d9eccf6	0.07753937
237	0x3daed434	0.08536568
238	0x39c785a9	0.00038055822
239	0xbe825bdd	-0.2546071
240	0xbe14b0a8	-0.14520514
241	0xbe2817bb	-0.16415302
242	0xbe755ef6	-0.23962006
243	0xbdf916c8	-0.12162548
244	0xbe57e0e1	-0.21081878
245	0xbe86051f	-0.26175782
246	0xbe43c0a8	-0.19116461
247	0x3d40036b	0.04687826
248	0x3deb275e	0.11482118
249	0xbe55daac	-0.20884198
250	0xbe2cdb79	-0.16880597
251	0xbd8863fd	-0.06659696
252	0x3dc17ba1	0.094474085
253	0xbd92a9c6	-0.07161288
254	0xbcc05283	-0.023476845
255	0xbe727af9	-0.23679723

deconv1/bias f4 [8]
0	0x3e1ad5d1	0.15120627
1	0x3e2c6587	0.16835605
2	0x3e1298a2	0.14316037
3	0x3e242fb1	0.16033818
4	0x3e0a85da	0.13527623
5	0xbb7c74d5	-0.0038521786
6	0x3e370728	0.17873824
7	0x3ddc5c7b	0.10759827

deconv1/weights/read_transposed f4 [8, 2, 2, 16]
0	0xbe3508c0	-0.17679119
1	0xbecbceee	-0.39806312
2	0x3d53fea1	0.051756505
3	0x3e77425c	0.24146408
4	0x3e75c00f	0.23999046
5	0x3e54ca4d	0.20780297
6	0x3e0a725b	0.13520186
7	0xbeaf811c	-0.3427819
8	0xbdf1662e	-0.11787067
9	0x3ec74740	0.38921547
10	0xbdcef453	-0.10105195
11	0xbde1e597	-0.11030119
12	0x3d01bead	0.031675983
13	0x3e253c4f	0.16136287
14	0xbd8568eb	-0.06514152
15	0xbd5803eb	-0.05273811
16	0xbecfb14c	-0.40564954
17	0xbdbcfc1d	-0.09227774
18	0x3d460c96	0.048351847
19	0x3eb6236b	0.35573897
20	0xbe8294ee	-0.2550425
21	0xbde8220b	-0.11334618
22	0xbdb02c0d	-0.08602152
23	0xbe1ebef7	-0.15502535
24	0xbcc3a711	-0.023883374
25	0x3ea56935	0.3230683
26	0xbdf2df1f	-0.11858963
27	0xbe9f6ab9	-0.3113611
28	0xbe1f74eb	-0.15571944
29	0x3ea54b0a	0.32283813
30	0x3e8e9c17	0.27853462
31	0x3eae5435	0.3404862
32	0xbe33c08b	-0.17553918
33	0xbe53d813	-0.20687895
34	0xbdcde25c	-0.1005294
35	0x3eb1e318	0.3474357
36	0x3e51330e	0.20429632
37	0x3e9f7ce5	0.31149974
38	0x3e4c9a0c	0.19980639
39	0x3e602eda	0.21892872
40	0x3d44b475	0.04802366
41	0x3f2d10d6	0.67603815
42	0x3e4a55f5	0.19759353
43	0xbe77b8a2	-0.24191526
44	0x3e135a32	0.14389876
45	0x3eca8769	0.39556435
46	0xbc417c8f	-0.011809482
47	0x3cc70984	0.02429653
48	0xbec61968	-0.38691258
49	0xbea72d26	-0.32651633
50	0xbbd58e68	-0.0065172203
51	0x3e7aa7d6	0.24478087
52	0x3dc93c90	0.098260045
53	0x3c99b3ba	0.018762458
54	0x3d808b5b	0.0627658
55	0xbd9d5acb	-0.07683333
56	0x3e787466	0.24263152
57	0x3f39c6e2	0.72569096
58	0x3d0ce075	0.034393746
59	0xbe5fe178	-0.21863353
60	0x3d63aa69	0.055582438
61	0x3eac5441	0.3365803
62	0xbe747a8f	-0.23874877
63	0x3dc75e69	0.09734804
64	0x3e9e6ded	0.30943242
65	0xbe75ac58	-0.23991525
66	0xbea528d4	-0.32257712
67	0xbf0ca0d8	-0.5493293
68	0x3e434117	0.19067799
69	0x3de21e3c	0.11040923
70	0xbdd0dde9	-0.10198576
71	0xbe80d724	-0.2516414
72	0x3e2ed842	0.17074683
73	0xbe40b40c	-0.18818682
74	0x3dc83791	0.097762235
75	0xbdb435a1	-0.087992914
76	0xbcef0de2	-0.029181425
77	0x3e2cab22	0.16862157
78	0x3e025876	0.12729058
79	0xbe75c416	-0.24000582
80	0x3d1cd3b7	0.038287845
81	0xbec85b5c	-0.39132202
82	0xbe7ab4ae	-0.24482986
83	0xbe1731b0	-0.14765048
84	0xbe44ffd5	-0.19238217
85	0xbe02936c	-0.1275155
86	0xbe8cb8f2	-0.27484852
87	0xbe6bae2a	-0.23015657
88	0x3bf513bf	0.0074791606
89	0x3e0f55b8	0.13997543
90	0x3dde755a	0.10862227
91	0xbe6e68dd	-0.2328219
92	0xbec3eab1	-0.38264993
93	0x3d9728d8	0.07380837
94	0xbeb87129	-0.36023834
95	0xbdec2122	-0.11529757
96	0x3e846193	0.25855693
97	0xbe01e50b	-0.12685029
98	0xbe967005	-0.2938234
99	0xbdcb3b61	-0.09923435
100	0x3d6aaeaf	0.057295498
101	0x3e061f67	0.13097917
102	0xbe28a4ef	-0.16469167
103	0x3da2629c	0.079289645
104	0x3e6b0e07	0.2295457
105	0xbe7bf17f	-0.24603842
106	0xbe07fb4b	-0.13279454
107	0xbe799233	-0.24372177
108	0x3dc5ac53	0.09652009
109	0xbe407dd0	-0.18797994
110	0xbe80cfd5	-0.25158563
111	0x3c9c8e39	0.019110786
112	0x3d8394d3	0.0642487
113	0x3ce05de1	0.027388515
114	0xbe6e4a01	-0.23270418
115	0xbe215e52	-0.15758637
116	0x3e30ae41	0.17253973
117	0xbca4806a	-0.020080764
118	0xbdb768b5	-0.08955518
119	0x3d70897e	0.058724873
120	0xbd3e2f9e	-0.04643213
121	0xbeea02ba	-0.45705205
122	0xbd693824	-0.056938305
123	0xbeddc7ee	-0.43316597
124	0xbe029363	-0.12751536
125	0xbd8282b7	-0.06372588
126	0x3e98a39e	0.2981233
127	0xbeeef9ff	-0.46675107
128	0x3d824217	0.06360262
129	0x3f248345	0.642628
130	0xbeaac285	-0.33351532
131	0xbe465197	-0.19367062
132	0x3e4ad202	0.19806674
133	0xbe070d90	-0.13188767
134	0x3e025864	0.12729031
135	0xbd497ecc	-0.04919319
136	0x3e5402a6	0.20704135
137	0xbe0f2e08	-0.13982403
138	0x3d95d435	0.07315866
139	0x3de8124b	0.11331614
140	0xbdeba371	-0.11505783
141	0x3e53d96d	0.2068841
142	0x3de6fc21	0.112785585
143	0x3e1598e2	0.14609101
144	0x3c824bb9	0.015905248
145	0x3e497802	0.19674686
146	0xbe65824d	-0.22412987
147	0xbe21cd27	-0.15800916
148	0xbdbdd4ea	-0.09269126
149	0x3e0e774f	0.139127
150	0xbd97e2bb	-0.07416292
151	0xbdcce743	-0.10005047
152	0x3dae31fe	0.08505629
153	0x3e13ef40	0.14446735
154	0x3ceb34c7	0.02871169
155	0x3e4374dd	0.19087549
156	0xbdad6c55	-0.08467928
157	0x3e971aff	0.29512784
158	0x3e781450	0.24226499
159	0xbdfdbb1a	-0.123892024
160	0xbe02a161	-0.12756874
161	0x3cac0ec1	0.021003129
162	0xbe5e7710	-0.21725106
163	0xbe8b1d47	-0.27170774
164	0xbd369c77	-0.04458281
165	0xbe893a35	-0.2680222
166	0x3d9ddba6	0.0770791
167	0x3ecadab9	0.39619997
168	0x3e0263d6	0.12733397
169	0xbe941fdc	-0.28930557
170	0x3e6fce95	0.23418649
171	0x3e67b051	0.22625853
172	0x3e869763	0.26287374
173	0x3defec44	0.11714986
174	0xbc3a1ee5	-0.011359905
175	0xbe8bb7c9	-0.27288654
176	0xbe967fc4	-0.29394352
177	0x3d06152d	0.03273504
178	0xbee2469a	-0.4419449
179	0xbf01ae15	-0.50656253
180	0xbe10ad44	-0.14128596
181	0xbecfd44b	-0.40591654
182	0x3bfb5dd8	0.007671099
183	0x3e4a7901	0.19772722
184	0xbedacf05	-0.42736068
185	0xbc89e0d2	-0.016830835
186	0xbcc77b29	-0.02435072
187	0x3c401b7c	0.011725303
188	0xbeac434b	-0.3364509
189	0xbe0b39cf	-0.13596271
190	0x3dbcbff7	0.09216302
191	0x3da6fe97	0.08154028
192	0xbca4ce4a	-0.020117898
193	0xbe07c9df	-0.13260601
194	0xbf1ec8cb	-0.62025136
195	0xbebb2cd6	-0.36557645
196	0xbd6616b4	-0.056173995
197	0x3e34f037	0.1766976
198	0x3d89ec1d	0.06734488
199	0xbe9fcf4e	-0.31212848
200	0x3dee9c1a	0.11650868
201	0xbe35bf78	-0.17748821
202	0x3e6906be	0.22756478
203	0x3cddb6cc	0.027064703
204	0x3d019d1f	0.031643983
205	0xbe99f77c	-0.30071628
206	0xbd663c6f	-0.056209978
207	0xbe92ab55	-0.2864634
208	0x3e435a9a	0.1907753
209	0x3e7822af	0.2423198
210	0xbeb62212	-0.3557287
211	0xbd5a8ea4	-0.05335869
212	0xbd270ce1	-0.040783767
213	0xbd3f34e9	-0.04668132
214	0x3d6a25a7	0.057164814
215	0xbeee1226	-0.4649822
216	0xbd618e03	-0.055067074
217	0xbe103e8f	-0.14086364
218	0xbdf59f97	-0.1199333
219	0x3ece0fac	0.40246332
220	0xbeb604e3	-0.35550603
221	0x3e53f00f	0.20697044
222	0xbcd144ab	-0.025545439
223	0x3d84392e	0.06456219
224	0xbe05fcd2	-0.13084725
225	0x3df2100b	0.11819466
226	0xbe5ed5c2	-0.2176123
227	0xbf0f2474	-0.55915
228	0xbe25f5e7	-0.16207086
229	0xbeacfd1c	-0.33786857
230	0xbe29647d	-0.1654224
231	0x3ec1725e	0.37782568
232	0x3de37b1a	0.11107464
233	0xbeeae5f5	-0.45878568
234	0x3e66bb81	0.22532465
235	0x3e4d4f21	0.20049717
236	0x3dc7dd4a	0.097590044
237	0xbec56266	-0.38551635
238	0x3e5d2a15	0.21598084
239	0xbed068b1	-0.40704873
240	0x3e0cf694	0.13765937
241	0x3e85b7de	0.26116842
242	0xbec19427	-0.37808344
243	0xbebbddce	-0.3669266
244	0xbcb438a5	-0.021999666
245	0x3deaa499	0.11457176
246	0x3d5567b7	0.052100863
247	0xbe815cf6	-0.25266236
248	0x3ec8cdd1	0.39219525
249	0xbd87c08c	-0.06628522
250	0xbc82ab10	-0.01595071
251	0x3e904c6b	0.28183302
252	0xbc9274e6	-0.017878007
253	0xbe48ca38	-0.1960839
254	0x3e1e594e	0.15463755
255	0xbe8dabff	-0.27670285

deconv2/bias f4 [16]
0	0x3d85285c	0.065018386
1	0x3dce1d11	0.10064138
2	0x3e00e1c5	0.12586124
3	0x3d2bf536	0.0419819
4	0x3dc8ce30	0.09804952
5	0x3ddf2e63	0.108975194
6	0x3da132f9	0.078710504
7	0x3cf5fa21	0.030026497
8	0x3befbda3	0.0073163076
9	0x3dd68a96	0.10475652
10	0x3ddb2937	0.107012205
11	0x3da30fa3	0.07961967
12	0xbd77471f	-0.06037056
13	0xbcc98654	-0.024600185
14	0x3de7ff01	0.11327935
15	0xbd146d6c	-0.036237165
