build_and_compress/tflite/test.tflite (tflite, 136692 bytes, 25 tensors)

conv1/Conv2D_bias f4 [8]
-0.022756575 0.03236378 0.008402692 -0.023908086 0.010790572 -0.0071233097 0.035812307 -0.06287724
00000000: ff6b babc e28f 043d 72ab 093c e4da c3bc
00000010: f0ca 303c a76a e9bb edaf 123d c8c5 80bd

conv1/weights f4 [8, 3, 3, 3]
0.114091456 -0.20632905 -0.037613593 -0.16865271 0.038789846 0.07535734 0.015609208 -0.14219725
-0.16743493 -0.20712043 0.05933507 -0.09954728 0.040225927 0.2900107 -0.21472119 0.03580386
0.0026312019 0.0074107423 0.42821428 -0.29121593 0.0037207357 0.028199324 0.3925879 -0.13158783
0.15285954 0.16002953 -0.28910637 -0.37577456 -0.25128412 0.30962607 0.004229841 0.39646426
-0.17946786 0.010929774 -0.02189161 0.37996662 -0.30837363 0.15785132 -0.029174924 0.2955063
0.2566862 0.20735113 0.19375758 -0.10420009 0.446375 -0.34634256 -0.04468 0.053334776
0.15238275 0.17634135 0.22409526 0.02828423 0.18150082 0.08956934 -0.13205348 -0.15656257
0.2347148 -0.07405069 0.21371052 0.13643555 -0.039889053 -0.15666018 0.31945553 0.22400615
0.26537934 -0.059344564 0.24305938 0.013077838 0.110206775 -0.20765077 -0.05431929 0.22255857
-0.0690705 0.16652097 -0.06576524 0.05246271 -0.0061959196 0.121984825 0.2807894 -0.17875466
-0.26535887 -0.044847775 0.05242835 0.35601762 0.009424943 0.04089923 0.034468025 -0.20059069
-0.30089092 -0.25781974 -0.039678436 0.034883548 0.03069144 -0.081762396 -0.29146045 0.1977969
-0.07885812 0.021194983 -0.39298695 -0.33350766 0.05241873 0.093205005 0.27211198 0.0031924404
-0.11093114 -0.12858321 0.20960432 -0.20976673 0.1746931 0.20253958 -0.1613186 0.24264482
0.18227066 0.07653013 -0.17336382 0.011832968 0.35103968 0.2818403 -0.31632158 -0.25996348
0.021903811 -0.45960417 -0.21071166 -0.3104656 -0.18984063 0.088330396 -0.42819333 0.11103058
-0.20625502 0.29660982 0.26709333 -0.32093486 0.034697853 0.066920824 0.32644194 0.20041403
-0.052142195 -0.044302803 -0.04233246 0.007649913 0.02221297 -0.347844 -0.11489274 -0.39741048
-0.0626998 -0.0069903755 -0.10613388 0.4067812 0.4000957 -0.22331928 -0.116318546 -0.06140393
-0.28283986 0.198672 -0.07129296 0.23807995 0.041897267 0.028466059 0.19992265 -0.24440135
-0.2694221 -0.18159255 0.18411306 -0.07064871 0.13436192 -0.37357038 0.14966181 -0.40897056
0.040126584 -0.46638688 -0.45431405 0.06382581 0.16254114 -0.018259859 -0.119066566 -0.042347435
-0.117002934 0.08654588 0.2063202 0.064855605 -0.127548 0.010484316 -0.1582679 0.31061316
-0.07849297 0.11221364 0.24176854 -0.047202244 0.3461235 0.1149119 -0.28188565 -0.36813024
-0.12967989 0.4209775 0.306069 -0.06816536 0.108162135 0.056641325 0.10838167 -0.10927935
-0.34861618 -0.051514063 -0.081359975 -0.49190623 -0.34469104 0.044622492 -0.122018 0.059981883
-0.0009675077 0.13334174 -0.03699427 0.19617769 -0.036737967 -0.03215104 -0.01023471 -0.4083504
00000000: c8a8 e93d ec47 53be b610 1abd 4cb3 2cbe
00000010: 1ae2 1e3d f354 9a3d c3bd 7f3c 289c 11be
00000020: 1074 2bbe 6117 54be 5509 733d 72df cbbd
00000030: f1c3 243d 487c 943e dfdf 5bbe 11a7 123d
00000040: 3e70 2c3b d0d5 f23b e73e db3e 411a 95be
00000050: 96d7 733b 4502 e73c 4801 c93e f6be 06be
00000060: 3687 1c3e c8de 233e c005 94be 8665 c0be
00000070: 50a8 80be 4f87 9e3e 7a9a 8a3b 5dfd ca3e
00000080: 6cc6 37be cb12 333c 0956 b3bc fc8a c23e
00000090: 26e3 9dbe c7a3 213e 4000 efbc 9a4c 973e
000000a0: 606c 833e db53 543e 6368 463e db66 d5bd
000000b0: 448b e43e d053 b1be 6002 37bd 9175 5a3d
000000c0: 390a 1c3e d492 343e 3a79 653e 54b4 e73c
000000d0: 5adb 393e 2170 b73d 0739 07be f051 20be
000000e0: 1459 703e e3a7 97bd eed6 5a3e c3b5 0b3e
000000f0: b462 23bd 876b 20be ad8f a33e de61 653e
00000100: cddf 873e 4913 73bd 8fe4 783e 6e44 563c
00000110: 17b4 e13d 67a2 54be e77d 5ebd 65e6 633e
00000120: d674 8dbd 7984 2a3e edaf 86bd 23e3 563d
00000130: 2407 cbbb 2ed3 f93d a1c3 8f3e 760b 37be
00000140: 1edd 87be 4db2 37bd 1cbf 563d f147 b63e
00000150: 136b 1a3c f385 273d 582e 0d3d a567 4dbe
00000160: 600e 9abe f300 84be db85 22bd 0de2 0e3d
00000170: 9d6c fb3c 0b73 a7bd 4e3a 95be 458b 4a3e
00000180: 5e80 a1bd 1aa1 ad3c 9635 c9be 84c1 aabe
00000190: 06b5 563d 44e2 be3d 4352 8b3e 4338 513b
000001a0: de2f e3bd 51ab 03be 84a2 563e 17cd 56be
000001b0: bfe2 323e 8966 4f3e b430 25be e277 783e
000001c0: 29a5 3a3e d4bb 9c3d 4986 31be 11df 413c
000001d0: 79bb b33e 5f4d 903e e7f4 a1be ef19 85be
000001e0: 9f6f b33c 3d51 ebbe ccc4 57be 59f5 9ebe
000001f0: 9565 42be 91e6 b43d 283c dbbe 0064 e33d
00000200: 8434 53be 3edd 973e 75c0 883e 9351 a4be
00000210: 561f 0e3d c90d 893d 6623 a73e 5639 4d3e
00000220: 0e93 55bd db76 35bd cd64 2dbd 1fac fa3b
00000230: f9f7 b53c 9c18 b2be e34c ebbd 6379 cbbe
00000240: c168 80bd 850f e5bb b85c d9bd a045 d03e
00000250: 58d9 cc3e cfad 64be 6b38 eebd b082 7bbd
00000260: 63d0 90be ac70 4b3e 0b02 92bd 3bcb 733e
00000270: 789c 2b3d a731 e93c 86b8 4c3e 5944 7abe
00000280: b2f1 89be 66f3 39be 2288 3c3e 45b0 90bd
00000290: 2c96 093e 9e44 bfbe f240 193e 9764 d1be
000002a0: c65b 243d 43ca eebe da9b e8be 1bb7 823d
000002b0: 2f71 263e b395 95bc 2cd9 f3bd 8174 2dbd
000002c0: 3c9f efbd f73e b13d 9a45 533e 04d3 843d
000002d0: f19b 02be 69c6 2b3c fb10 22be b008 9f3e
000002e0: ecc0 a0bd 44d0 e53d 2c92 773e 2457 41bd
000002f0: 1937 b13e ee56 eb3d 5153 90be 917b bcbe
00000300: ceca 04be 5d8a d73e 13b5 9c3e 489a 8bbd
00000310: 1c84 dd3d bc00 683d 36f7 dd3d dacd dfbd
00000320: d27d b2be 6900 53bd 0fa0 a6bd 22db fbbe
00000330: 587b b0be 13c6 363d 93e4 f9bd 90af 753d
00000340: 58a0 7dba bd8a 083e 4e87 17bd cee2 483e
00000350: 8d7a 16bd cfb0 03bd 7caf 27bc 4e13 d1be

conv2/Conv2D_bias f4 [8]
-0.032292746 -0.05209614 0.05256413 -0.025246149 0.009524453 -0.02919882 -0.037719 -0.007344697
00000000: 6645 04bd c362 55bd 7c4d 573d 03d1 cebc
00000010: 740c 1c3c 5d32 efbc 3d7f 1abd c9ab f0bb

conv2/weights f4 [8, 3, 3, 8]
0.040793657 0.08954019 -0.09565647 0.25512272 -0.041734945 -0.03890205 -0.04437422 0.023713555
-0.20996293 -0.00046008287 -0.12187087 0.15391701 0.0035765818 -0.14913914 0.11541001 -0.03399793
-0.08015106 0.0032858949 -0.16426532 0.11907452 0.16884433 -0.26291156 0.073928654 -0.08113392
-0.10815714 0.04994406 -0.05055468 0.14029151 -0.038423415 0.011460674 -0.1392237 0.0124430135
0.15090019 -0.035277758 -0.13235235 0.22609432 0.07751897 -0.028277526 -0.07005463 0.13877061
-0.064474426 -0.21554776 -0.10805094 -0.11246066 -0.14311707 -0.21235545 -0.13012339 -0.20658003
-0.06736275 -0.07876966 0.14431484 0.11799694 -0.01126836 0.04624665 0.08495836 0.030389132
0.17650184 0.2730094 0.11672957 0.07400636 0.053211354 0.18330288 -0.17870139 -0.17518146
-0.03808076 0.08659019 0.13575982 -0.21647668 -0.017762888 -0.21831514 0.04561568 0.13333629
-0.11264383 -0.05802978 0.044408657 0.050164692 -0.09331019 0.13158762 -0.2032994 0.07990406
0.115541875 0.1962142 0.12868269 -0.14911279 -0.020405589 -0.23104808 -0.03178911 0.00802776
-0.19995464 -0.16090554 0.021840472 -0.05299192 0.09789438 0.016284695 -0.14418271 -0.07095416
0.13234212 -0.008452563 -0.1354659 0.14917906 0.05676381 -0.007814085 -0.28169495 -0.18976505
-0.11495384 -0.025894718 -0.22574624 0.013216403 0.028047226 0.062100083 0.30722436 0.0018110023
0.036340196 -0.053789712 -0.011700897 0.023309406 0.008668264 0.08175108 0.028118774 -0.039682265
-0.072412305 -0.030162357 -0.026724488 0.116409644 -0.11313429 0.15242134 0.21367434 0.04853896
-0.050049704 0.003167959 -0.043203924 0.13404667 0.19017251 -0.049968738 0.20401576 -0.14226925
-0.061553337 0.03792883 -0.03565471 -0.21029095 -0.22395968 0.060228787 0.25866172 0.03943504
-0.1692975 -0.0037166793 -0.025703395 0.071288176 0.007655084 0.02184896 -0.15542182 -0.12405359
-0.25591096 0.088531256 0.070492975 0.079296544 -0.24817514 -0.21178825 -0.12114185 0.03790804
-0.19554779 0.031384066 -0.09233412 0.03823737 -0.13175441 0.00397529 -0.25112236 -0.12098448
0.101114735 0.23234354 -0.0052737407 0.059297733 0.13576327 -0.14632992 -0.24636503 -0.13712497
-0.21023823 0.11136866 0.032571144 0.09838287 -0.016408768 0.012413548 0.11910559 0.060718242
-0.09172853 -0.007664038 0.016872326 -0.16377254 -0.10012234 -0.19699186 -0.009760342 0.00964321
0.030378457 0.0730949 0.24132015 0.04487636 0.063641034 -0.004581526 -0.16068904 0.0419061
0.034271877 0.0467269 0.06556911 -0.098246284 0.1103906 -0.114622734 -0.21245079 -0.14197354
-0.2416871 0.026108913 -0.112122625 0.035816513 -0.06590262 -0.105371796 -0.023410274 -0.091249496
0.18916795 0.0061472906 -0.086850815 -0.09704982 -0.07821455 -0.03627411 -0.090691574 -0.0247158
0.23576728 0.036637332 -0.0729186 -0.05623473 -0.1433906 0.13938746 -0.16648544 -0.050511956
0.07954558 -0.082644224 -0.046251316 -0.020983601 0.07722359 -0.067936786 -0.09765053 0.2443577
-0.054057743 -0.024094881 0.060278885 0.004672099 -0.07760253 -0.10916597 0.2581706 0.08854975
0.053967122 -0.10671743 0.034029912 0.16409083 -0.16938613 0.209813 0.17539985 -0.09732281
00000000: 4017 273d d960 b73d 8ae7 c3bd 729f 823e
00000010: 43f2 2abd c257 1fbd bec1 35bd ee42 c23c
00000020: 8600 57be 4737 f1b9 6f97 f9bd 6c9c 1d3e
00000030: 1665 6a3b eeb7 18be 155c ec3d 6a41 0bbd
00000040: 3d26 a4bd 2b58 573b 2b35 28be 58dd f33d
00000050: 87e5 2c3e 589c 86be e867 973d 8a29 a6bd
00000060: 7e81 ddbd 2592 4c3d 6d12 4fbd 94a8 0f3e
00000070: df61 1dbd 8dc5 3b3c a890 0ebe c8dd 4b3c
00000080: 9485 1a3e 697f 10bd 6087 07be 4585 673e
00000090: 44c2 9e3d 45a6 e7bc cd78 8fbd e219 0e3e
000000a0: 2b0b 84bd 8db8 5cbe d049 ddbd c651 e6bd
000000b0: 488d 12be b573 59be 113f 05be b789 53be
000000c0: 7bf5 89bd fd51 a1bd 45c7 133e 61a8 f13d
000000d0: ed9e 38bc 216d 3d3d a6fe ad3d a1f2 f83c
000000e0: e6bc 343e e3c7 8b3e ea0f ef3d a590 973d
000000f0: 26f4 593d c0b3 3b3e 7ffd 36be c562 33be
00000100: 92fa 1bbd 3356 b13d 9f04 0b3e 10ac 5dbe
00000110: 7a83 91bc 018e 5fbe 82d7 3a3d 4f89 083e
00000120: cfb1 e6bd a2b0 6dbd dae5 353d 7e79 4d3d
00000130: 6a19 bfbd e8be 063e b82d 50be bda4 a33d
00000140: 38a1 ec3d 60ec 483e 65c5 033e 06b1 18be
00000150: 9f29 a7bc de97 6cbe 4c35 02bd de86 033c
00000160: e9c0 4cbe 6cc4 24be caea b23c 0e0e 59bd
00000170: d97c c83d 7b67 853c a2a4 13be 6a50 91bd
00000180: b184 073e 9e7c 0abc 93b7 0abe 65c2 183e
00000190: 2b81 683d a606 00bc 523a 90be c551 42be
000001a0: eb6c ebbd 2921 d4bc 062a 67be 9d89 583c
000001b0: 4cc3 e53c a85c 7e3d 834c 9d3e 275f ed3a
000001c0: 75d9 143d 9a52 5cbd 1eb5 3fbc 5ef3 be3c
000001d0: 5605 0e3c 1c6d a73d 5859 e63c df89 22bd
000001e0: e74c 94bd 0c17 f7bc 50ed dabc 2e68 ee3d
000001f0: f3b2 e7bd 5714 1c3e 72cd 5a3e cad0 463d
00000200: eb00 4dbd 889d 4f3b 99f6 30bd 8843 093e
00000210: 95bc 423e 05ac 4cbd 82e9 503e 08af 11be
00000220: 5a1f 7cbd 435b 1b3d ac0a 12bd 8356 57be
00000230: b055 65be 76b2 763d 4f6f 843e a386 213d
00000240: 535c 2dbe 8893 73bb ed8f d2bc 89ff 913d
00000250: 80d7 fa3b 97fc b23c e626 1fbe cf0f febd
00000260: c306 83be e04f b53d 9f5e 903d 3a66 a23d
00000270: a021 7ebe 05df 58be 3819 f8bd 7645 1b3d
00000280: ae3d 48be 948c 003d ac19 bdbd ca9e 1c3d
00000290: a1ea 06be 2643 823b 1c93 80be b6c6 f7bd
000002a0: 3e15 cf3d 77eb 6d3e 58cf acbb 2ee2 723d
000002b0: 8705 0b3e 83d7 15be 1d47 7cbe 7d6a 0cbe
000002c0: b148 57be 4115 e43d 5269 053d f57c c93d
000002d0: ae6b 86bc 3262 4b3c a2ed f33d b1b3 783d
000002e0: 2bdc bbbd 9c22 fbbb d537 8a3c fdb3 27be
000002f0: f10c cdbd 3cb8 49be d7e9 1fbc 8efe 1d3c
00000300: 3edc f83c c7b2 953d a11c 773e 46d0 373d
00000310: 3b56 823d a020 96bb ab8b 24be bba5 2b3d
00000320: ab60 0c3d b564 3f3d 1949 863d 5935 c9bd
00000330: 7814 e23d 53bf eabd b38c 59be 8361 11be
00000340: d37c 77be 5ce2 d53c 8ca0 e5bd 56b4 123d
00000350: f4f7 86bd 2bcd d7bd e7c6 bfbc 04e1 babd
00000360: 3eb5 413e 366f c93b d7de b1bd 0ec2 c6bd
00000370: f32e a0bd 2994 14bd 81bc b9bd ca78 cabc
00000380: fa6c 713e 0711 163d 5956 95bd 6356 66bd
00000390: fcd4 12be 96bb 0e3e 297b 2abe a0e5 4ebd
000003a0: cbe8 a23d 6041 a9bd 0572 3dbd cde5 abbc
000003b0: 6727 9e3d 7122 8bbd 00fd c7bd e838 7a3e
000003c0: a76b 5dbd a162 c5bc fee6 763d 6818 993b
000003d0: 13ee 9ebd 6892 dfbd f02e 843e 9259 b53d
000003e0: a10c 5d3d ab8e dabd f362 0b3d 6d07 283e
000003f0: 8f73 2dbe 38d9 563e 059c 333e 2e51 c7bd

conv3/Conv2D_bias f4 [16]
0.033174634 -0.014725467 -0.027495658 0.074172094 0.012938628 -0.010746891 0.09950423 0.047635645
0.049376983 -0.036652386 -0.021673843 0.021668077 0.039635736 0.0440661 0.025270479 -0.029263068
00000000: 20e2 073d 1643 71bc 933e e1bc 8ae7 973d
00000010: 8afc 533c ba13 30bc e0c8 cb3d 981d 433d
00000020: 853f 4a3d d020 16bd 588d b1bc 4081 b13c
00000030: 1559 223d a87e 343d 0904 cf3c 1ab9 efbc

conv3/weights f4 [16, 3, 3, 8]
0.070350766 0.043805767 0.09863887 -0.023242552 0.078444146 -0.1726517 -0.20112914 -0.10342199
-0.06344425 -0.23442028 -0.08469455 -0.11988792 0.03187387 0.020086529 -0.14051284 0.025300704
-0.06626088 -0.23119059 -0.027528882 -0.09147677 -0.081159145 0.17740169 -0.11627256 -0.10410102
-0.16871898 -0.10578684 0.025097735 -0.0407833 -0.0812381 -0.030332278 0.07557665 0.11128619
-0.073541716 -0.028927783 0.050173413 -0.15277536 0.05656686 -0.1691232 -0.14888671 0.07677176
0.014486735 -0.06155877 0.17364986 -0.1470928 0.077795 -0.14299458 -0.24912344 -0.23188029
0.14852805 0.16680841 0.07734176 -0.06372188 -0.09122153 0.17499769 -0.12242379 -0.18911746
-0.209662 0.1551128 0.059571523 -0.1513088 -0.08495641 -0.040770315 0.059220098 -0.05091934
-0.075214036 -0.14698666 0.18503787 -0.043962322 -0.025722494 0.15887013 -0.13907476 0.05492396
0.29027325 -0.12610638 -0.25067276 0.17036241 -0.06061923 0.082535796 0.15661718 0.2684084
0.0829251 0.08442018 -0.11087993 0.11529086 0.04524663 0.098069 -0.08467951 -0.06172999
0.06885519 0.06508015 0.13670343 0.019316198 0.098227136 0.0484826 0.020689188 -0.04925933
-0.09928082 -0.08249918 -0.10792115 0.06470635 -0.05973081 -0.12917808 -0.08874057 0.10703669
0.11360052 -0.010529196 -0.17693958 0.026885727 -0.12984942 0.10253091 0.040294528 0.11816566
0.1816351 -0.15675603 -0.0038065703 -0.05049905 0.16539668 0.25447473 0.0139569035 -0.14955215
0.22331417 0.021885484 0.13968824 0.05106968 0.029710166 -0.017694317 -0.0017026224 0.19810875
-0.021615947 0.031386904 -0.14292508 0.12529863 0.23166502 -0.13680153 0.17643192 0.013442021
-0.09255143 0.16195114 0.28898257 0.010979118 0.13722473 -0.11106395 -0.018636022 -0.037192896
0.04209055 0.18955198 0.13105652 0.3260959 -0.06067224 0.0031431704 -0.066023774 -0.14972262
0.14571743 0.25372413 -0.093348764 0.24810162 -0.14378 -0.0046975664 0.08011963 -0.0789466
0.122627534 0.060643308 -0.021610493 0.020358473 -0.0713934 -0.05038502 -0.030554142 0.2801792
-0.14951885 0.06291232 -0.016094994 0.051929966 -0.034618802 0.047798943 0.099221736 -0.0050612716
-0.002866071 -0.21778123 0.022260632 0.027295824 -0.06754971 0.05065536 -0.15551011 0.14731896
0.09408833 -0.12156289 -5.8421676e-05 0.2993099 0.1847074 -0.29648888 0.08832802 -0.07906739
-0.12196069 -0.18885893 0.0519662 -0.20078242 0.08212928 0.048294954 -0.08747404 -0.13916263
-0.045892548 0.15766332 0.15009041 -0.03683677 -0.14800979 0.056686617 -0.11300415 -0.10551104
0.21125124 0.03651269 -0.09888381 -0.01669131 0.10178876 0.04631224 0.12681915 0.23515959
-0.19900142 -0.054466285 -0.11228866 0.06476789 0.053924333 0.011470006 -0.29504398 -0.050052572
0.07914884 0.14841366 -0.14531434 0.27840316 0.17435916 -0.2002542 0.21452433 0.18743412
0.008495211 0.22024542 0.019439274 0.1123701 0.10309489 0.039276715 -0.15750575 -0.11095534
-0.19413462 -0.17529486 -0.02897584 -0.08714647 -0.068380795 -0.34831837 -0.113236375 0.0071439873
-0.07904316 0.10488897 -0.026487036 0.12012919 0.110472225 -0.260275 0.042590618 -0.05485137
00000000: 1014 903d ad6d 333d 2d03 ca3d 2a67 bebc
00000010: 53a7 a03d 9bcb 30be ccf4 4dbe e9ce d3bd
00000020: 0fef 81bd df0b 70be 5674 adbd cc87 f5bd
00000030: 2d8e 023d 818c a43c 99e2 0fbe 6c43 cf3c
00000040: c9b3 87bd 3abd 6cbe 4084 e1bc 2c58 bbbd
00000050: c436 a6bd caa8 353e 4f20 eebd ea32 d5bd
00000060: abc4 2cbe c5a6 d8bd c499 cd3c 640c 27bd
00000070: 2960 a6bd 667b f8bc eec7 9a3d 04ea e33d
00000080: 0a9d 96bd f5f9 ecbc a382 4d3d 2571 1cbe
00000090: a7b2 673d a22e 2dbe c275 18be 833a 9d3d
000000a0: c559 6d3c 0c25 7cbd 45d1 313e 7f9f 16be
000000b0: fc52 9f3d 2c6d 12be 371a 7fbe 0772 6dbe
000000c0: bd17 183e d3cf 2a3e 5b65 9e3d 9e80 82bd
000000d0: 5bd2 babd 9832 333e 53b9 fabd 02a8 41be
000000e0: a3b1 56be e4d5 1e3e 4501 743d b2f0 1abe
000000f0: a0fd adbd c6fe 26bd c690 723d cc90 50bd
00000100: d109 9abd ac83 16be 917a 3d3e d611 34bd
00000110: fbb7 d2bc daae 223e 9d69 0ebe f2f7 603d
00000120: b29e 943e 0822 01be 2e58 80be 7c73 2e3e
00000130: df4b 78bd 8708 a93d 4160 203e d36c 893e
00000140: a3d4 a93d 7de4 ac3d 0415 e3bd 9d1d ec3d
00000150: 8854 393d 66d8 c83d 736c adbd 96d8 7cbd
00000160: f303 8d3d be48 853d fcfb 0b3e 013d 9e3c
00000170: 4f2b c93d b195 463d 5f7c a93c 27c4 49bd
00000180: be53 cbbd 55f5 a8bd c405 ddbd c384 843d
00000190: 4ba8 74bd 4247 04be 9ebd b5bd 0d36 db3d
000001a0: 64a7 e83d a682 2cbc a62f 35be 753f dc3c
000001b0: 3ff7 04be bafb d13d e00b 253d d600 f23d
000001c0: 8dfe 393e a784 20be a777 79bb 18d8 4ebd
000001d0: bf5d 293e 834a 823e 7fab 643c 3324 19be
000001e0: 78ac 643e 3049 b33c 6f0a 0f3e 712e 513d
000001f0: bc62 f33c acf3 90bc 872a dfba 05dd 4a3e
00000200: ed13 b1bc 8e8f 003d f45a 12be 494e 003e
00000210: 9839 6d3e b315 0cbe 92aa 343e ec3b 5c3c
00000220: 9b8b bdbd 85d6 253e 86f5 933e c2e1 333c
00000230: a484 0c3e 7f75 e3bd 92aa 98bc 9457 18bd
00000240: 2467 2c3d ea19 423e ae33 063e 0bf6 a63e
00000250: 7483 78bd a6fd 4d3b 7937 87bd e350 19be
00000260: f336 153e 21e8 813e a32d bfbd 5a0e 7e3e
00000270: 103b 13be 0bee 99bb c315 a43d c1ae a1bd
00000280: 2524 fb3d 1e65 783d 7d08 b1bc d0c6 a63c
00000290: b436 92bd 8660 4ebd ae4c fabc a673 8f3e
000002a0: 781b 19be 2dd8 803d a6d9 83bc 84b4 543d
000002b0: 72cc 0dbd d3c8 433d c434 cb3d 06d9 a5bb
000002c0: b1d4 3bbb 0b02 5fbe ee5b b63c 7e9b df3c
000002d0: 8157 8abd ff7b 4f3d 0b3e 1fbe c8da 163e
000002e0: 62b1 c03d f7f5 f8bd cc09 75b8 263f 993e
000002f0: f023 3d3e 64cd 97be 52e5 b43d 15ee a1bd
00000300: 87c6 f9bd 3c64 41be 83da 543d e899 4dbe
00000310: 6533 a83d eed0 453d 9725 b3bd a680 0ebe
00000320: d3f9 3bbd 7e72 213e 4db1 193e 27e2 16bd
00000330: e18f 17be 3a30 683d b86e e7bd 2c16 d8bd
00000340: 3f52 583e 558e 153d 9883 cabd 37bc 88bc
00000350: a076 d03d e7b1 3d3d e1dc 013e adcd 703e
00000360: 07c7 4bbe 0a18 5fbd 99f7 e5bd 07a5 843d
00000370: c3df 5c3d b1ec 3b3c 0110 97be ed03 4dbd
00000380: c918 a23d c0f9 173e 48cd 14be dc8a 8e3e
00000390: 358b 323e 700f 4dbe 44ac 5b3e bbee 3f3e
000003a0: 7f2f 0b3c 0488 613e 1d3f 9f3c 4c22 e63d
000003b0: 6a23 d33d 9fe0 203d 3049 21be 8e3c e3bd
000003c0: 3acb 46be 7f80 33be be5e edbc d979 b2bd
000003d0: 3b0b 8cbd c956 b2be 79e8 e7bd 1c18 ea3b
000003e0: 61e1 a1bd 07d0 d63d 57fb d8bc 4b06 f63d
000003f0: 433f e23d c442 85be 8073 2e3d d5ab 60bd

conv4/Conv2D_bias f4 [16]
0.03479573 0.031911924 -0.010306594 0.03469083 0.0058978093 0.019681502 -0.035062525 0.043476086
0.068493746 0.0542715 -0.006975503 -0.0056063137 0.033287283 0.061313566 0.052118648 -0.019932713
00000000: f885 0e3d 14b6 023d fddc 28bc f917 0e3d
00000010: 6942 c13b 1a3b a13c b99d 0fbd fb13 323d
00000020: 7346 8c3d cb4b 5e3d c392 e4bb 2bb5 b7bb
00000030: 3f58 083d ef23 7b3d 5d7a 553d ee49 a3bc

conv4/weights f4 [16, 3, 3, 16]
0.0069259056 -0.047364905 0.018412247 -0.06593257 -0.026802875 -0.027154606 0.13507256 -0.23031136
0.043975133 -0.07755387 -0.10750257 0.0689788 0.057840556 -0.13729358 0.033870757 -0.14003885
0.15680006 0.032664053 0.051122326 -0.089825474 -0.15305908 -0.03375735 0.017294295 0.12558632
-0.00054911 -0.15905565 0.07906944 0.08683169 0.12772007 -0.025204288 -0.069630146 0.09868314
0.101977594 0.037354432 0.08309947 0.05080519 0.111337416 -0.20700733 0.16810647 -0.111256965
-0.08336423 -0.044458773 0.06006103 0.17276068 0.06366512 -0.0040306537 -0.098992184 -0.20741743
-0.050785113 -0.071110316 -0.06461587 0.033524938 0.08909613 0.02676003 0.015600408 -0.09835462
-0.07558029 -0.16544527 0.2190616 -0.087513894 0.185222 -0.008160111 -0.03845871 -0.022028882
-0.12083273 0.15003327 -0.053920794 0.077861585 0.026833912 0.07058403 0.01862817 -0.06746437
-0.05056689 -0.30261603 0.011226252 0.19379795 0.27501857 0.01563741 -0.007544373 0.048318442
-0.11994941 0.03025595 -0.20362264 -0.010658385 -0.068777144 -0.08514673 0.1346763 -0.044991285
-0.03327679 -0.22650354 0.066423886 -0.0008630434 0.30363658 -0.09103567 -0.019824812 -0.06925089
0.04836426 -0.07880368 -0.061853126 0.0376315 -0.112124935 -0.17657505 -0.10123972 -0.101667345
-0.0025001734 -0.12112764 -0.12325426 0.07065006 -0.03563799 -0.16959988 -0.09710379 -0.057721
-0.03477131 -0.022756748 -0.02073576 0.09123217 0.028853703 -0.16937377 0.074330606 0.033728644
0.16861436 0.062433448 0.05065619 0.06179849 0.12538394 -0.0017286608 -0.07433157 0.1295138
0.007551294 -0.034073427 0.024539977 -0.06455148 -0.06422236 -0.11901879 -0.11688078 -0.21872716
-0.036180843 0.013098069 -0.07273588 -0.04063273 -0.1893628 0.0022798353 -0.09535879 -0.104084164
-0.062133815 -0.023717899 -0.124599986 0.058828354 -0.24915396 -0.006017831 0.01853939 0.13582069
0.051173877 -0.07225891 -0.13787726 0.0132157495 0.1472583 -0.010146583 0.048000462 -0.2805204
0.011605543 0.06877156 -0.122997895 -0.06832503 -0.028929962 0.089618325 0.13474654 0.06725329
-0.03438913 -0.025966967 0.13737452 0.066384815 -0.19460852 -0.15695345 -0.0075547984 0.015238817
-0.044722274 -0.12154752 -0.14325383 -0.12331281 -0.08472245 0.0075609856 -0.102125905 0.11400802
0.024008472 -0.08790876 -0.06502996 -0.05248247 -0.2467739 -0.050732423 0.021993497 -0.1900778
0.15431173 -0.10600554 -0.048144724 0.02408171 -0.09093896 -0.08035567 -0.086336926 0.12875287
0.17622715 -0.040075604 -0.08665264 -0.03834687 0.23149009 0.0061109145 0.03246873 -0.26800835
-0.15677886 0.13054445 -0.08131614 -0.09442862 -0.05770756 0.094023846 0.11443262 0.038698565
0.04216741 0.044980753 -0.0034873981 -0.036582194 -0.18609227 0.04665748 -0.059804842 -0.27443781
0.12672305 -0.024830597 0.077988416 0.037291735 0.030714925 -0.12731032 -0.09141891 0.0025747044
0.045642816 0.18572015 0.03101293 -0.10759573 -0.2710358 0.14943409 -0.043380924 -0.17821996
0.07993035 0.042941056 -0.0534868 0.17899744 0.13872999 -0.109789036 0.052642643 0.22558552
-0.1632111 -0.016055014 0.057257324 -0.11560642 0.058728218 0.016664192 0.1124993 -0.24190804
00000000: b5f2 e23b b401 42bd 48d5 963c a807 87bd
00000010: b491 dbbc 5673 debc 7650 0a3e bed6 6bbe
00000020: 451f 343d 90d4 9ebd 4f2a dcbd c244 8d3d
00000030: 38ea 6c3d b096 0cbe 10bc 0a3d 5866 0fbe
00000040: 3290 203e beca 053d a565 513d 6bf6 b7bd
00000050: 85bb 1cbe 2645 0abd c4ac 8d3c b399 003e
00000060: 26f2 0fba 7cdf 22be 29ef a13d d0d4 b13d
00000070: 0dc9 023e 3979 cebc 409a 8ebd 631a ca3d
00000080: a1d9 d03d f600 193d 0e30 aa3d 1a19 503d
00000090: df04 e43d bbf9 53be 1a24 2c3e b1da e3bd
000000a0: deba aabd 671a 36bd 8e02 763d 2de8 303e
000000b0: dc62 823d 9313 84bb 6abc cabd 3c65 54be
000000c0: 0d04 50bd 49a2 91bd 5355 84bd 7251 093d
000000d0: 0878 b63d da37 db3c db98 7f3c 266e c9bd
000000e0: d7c9 9abd 7c6a 29be af51 603e 7c3a b3bd
000000f0: d6aa 3d3e fcb1 05bc e186 1dbd ea75 b4bc
00000100: 2677 f7bd 52a2 193e 0ddc 5cbd e575 9f3d
00000110: cbd2 db3c 5c8e 903d 1b9a 983c c22a 8abd
00000120: 3a1f 4fbd 7df0 9abe 50ee 373c f872 463e
00000130: 3ccf 8c3e 071a 803c ca36 f7bb 8fe9 453d
00000140: 09a8 f5bd 53db f73c 7482 50be 82a0 2ebc
00000150: 08db 8cbd 6961 aebd 96e8 093e c848 38bd
00000160: 3e4d 08bd 8bf0 67be 3f09 883d dd3d 62ba
00000170: 4176 9b3e e970 babd a567 a2bc 69d3 8dbd
00000180: 9a19 463d d363 a1bd b459 7dbd 7d23 1a3d
00000190: c2a1 e5bd 17d0 34be c556 cfbd f836 d0bd
000001a0: f3d9 23bb c511 f8bd bb6c fcbd fbb0 903d
000001b0: 24f9 11bd 97ab 2dbe 5ade c6bd db6c 6cbd
000001c0: 5c6c 0ebd 5c6c babc 0ade a9bc efd7 ba3d
000001d0: 9a5e ec3c 5170 2dbe a53a 983d 0c27 0a3d
000001e0: 3ea9 2c3e 37ba 7f3d dd7c 4f3d 6a20 7d3d
000001f0: a664 003e 3b94 e2ba 263b 98bd 449f 043e
00000200: d870 f73b 9490 0bbd 1008 c93c 9133 84bd
00000210: 0387 83bd 20c0 f3bd 315f efbd 03fa 5fbe
00000220: 5d32 14bd 4899 563c 8df6 94bd 816e 26bd
00000230: 52e8 41be 4a69 153b 784b c3bd 142a d5bd
00000240: 0780 7ebd 0a4c c2bc 472e ffbd 00f6 703d
00000250: 3722 7fbe 3a31 c5bb ebdf 973c 9414 0b3e
00000260: b39b 513d 7bfc 93bd b22f 0dbe df86 583c
00000270: e1ca 163e db3d 26bc 229c 443d 5fa0 8fbe
00000280: 2d25 3e3c 1bd8 8c3d 52e6 fbbd feed 8bbd
00000290: 87fe ecbc d089 b73d fffa 093e 18bc 893d
000002a0: 9edb 0cbd adb8 d4bc e8ab 0c3e c3f4 873d
000002b0: 7547 47be 68b8 20be 3e8e f7bb 3bac 793c
000002c0: b42e 37bd e8ed f8bd 22b1 12be 6d8b fcbd
000002d0: f782 adbd 25c2 f73b 6327 d1bd 097d e93d
000002e0: 6aad c43c 8209 b4bd 6d2e 85bd dcf7 56bd
000002f0: 4cb2 7cbe cdcc 4fbd b52b b43c c1a3 42be
00000300: e503 1e3e 6f19 d9bd 6733 45bd 0247 c53c
00000310: 353e babd 8391 a4bd 6ad1 b0bd cbd7 033e
00000320: e474 343e 5126 24bd f076 b1bd 9c11 1dbd
00000330: bd0b 6d3e 113e c83b eefd 043d 6438 89be
00000340: a38a 20be 72ad 053e 1489 a6bd cb63 c1bd
00000350: c35e 6cbd 938f c03d a65b ea3d 6382 1e3d
00000360: bcb7 2c3d bd3d 383d d58c 64bb 36d7 15bd
00000370: f98e 3ebe ea1b 3f3d ecf5 74bd 1d83 8cbe
00000380: b0c3 013e 8969 cbbc 64b8 9f3d 38bf 183d
00000390: de9d fb3c a35d 02be d639 bbbd 5fbc 283b
000003a0: f6f3 3a3d 6c2d 3e3e d40e fe3c 265b dcbd
000003b0: 34c5 8abe 4005 193e 32b0 31bd 4b7f 36be
000003c0: 86b2 a33d f6e2 2f3d fa14 5bbd 1b4b 373e
000003d0: 3c0f 0e3e 13d9 e0bd d09f 573d e4ff 663e
000003e0: d020 27be ce85 83bc a886 6a3d 0fc3 ecbd
000003f0: 008d 703d 5883 883c 0866 e63d beb6 77be

conv5/Conv2D_bias f4 [32]
0.0531386 0.027515456 0.030936826 -0.0017519163 0.029842049 0.06649894 0.025013627 0.030545708
0.03995496 0.06672873 0.06814748 0.05053067 -0.023028774 -0.0024309657 0.05676535 -0.061003946
0.019374883 0.06391463 -0.023497747 0.037434433 0.07985808 0.04445891 0.069076315 0.012999842
0.0065720156 0.07310225 -0.023041364 0.09401687 -0.012587325 -0.024870003 0.028543722 0.028836709
00000000: dca7 593d 1868 e13c 3a6f fd3c 8ea0 e5ba
00000010: 5077 f43c 9930 883d 61e9 cc3c fe3a fa3c
00000020: d0a7 233d 13a9 883d e890 8b3d 3ff9 4e3d
00000030: d7a6 bcbc d650 1fbb c982 683d 46df 79bd
00000040: 13b8 9e3c ace5 823d 597e c0bc d954 193d
00000050: a28c a33d 8c1a 363d e277 8d3d 4afd 543c
00000060: 105a d73b a2b6 953d 3ec1 bcbc eb8b c03d
00000070: 113b 4ebc 2dbc cbbc 86d4 e93c f63a ec3c

conv5/weights f4 [32, 3, 3, 16]
0.21209912 -0.061247237 0.056484725 0.041460373 0.20159481 -0.09481394 0.11434286 -0.03933225
0.02322592 -0.10635154 0.038255796 -0.004003452 -0.10059011 0.0480398 0.16521324 0.08700967
-0.016088398 -0.19467612 0.1745518 0.051699217 0.1270164 -0.028004903 -0.04255517 0.11004706
-0.071503244 -0.055616975 0.0049930075 -0.067920886 0.002656509 0.06746259 -0.040311765 0.07700521
-0.10437717 -0.12452378 0.18427503 0.10452682 0.1652368 -0.12248275 0.011905573 -0.17217618
-0.1405031 -0.043364175 -0.062730245 -0.15129198 -0.03512937 0.13724367 -0.1415635 -0.0009977157
0.17040068 -0.0672109 -0.012774383 0.067154765 0.093172856 -0.047323547 -0.14193973 0.17583112
-0.06895177 -0.054503024 0.11317934 0.043726876 -0.010816436 0.034126736 0.13347428 0.20923944
0.075788364 0.09145222 0.13172738 -0.06298745 0.039426707 -0.04917372 -0.02111617 0.08041574
0.07427179 0.051124275 -0.032087736 -0.07773418 0.0022142902 0.005133926 0.033625998 -0.11786601
0.0933202 -0.045970414 0.0062917196 -0.0024070358 0.050628822 -0.10222351 0.044860367 0.056816526
0.0032285044 0.13962148 0.013530931 -0.11326682 0.109929614 -0.11920323 0.113401994 -0.13804403
0.08032666 0.2486809 -0.0714471 -0.06859363 -0.12061775 -0.039506298 -0.026624544 0.082439736
-0.00080647366 0.09837694 -0.041074015 0.017817555 0.04685252 -0.13280095 0.11123434 -0.12933506
0.051930904 -0.005062271 -0.030635793 -0.07142473 -0.0918082 -0.02990287 -0.105202116 -0.008116312
0.10908215 0.05409708 0.022872088 -0.2038619 0.20892273 -0.025705263 0.0501188 -0.1364381
0.09454478 -0.009076376 0.025400247 0.0024415108 -0.062973134 0.020912131 -0.07827792 0.0023471948
0.01018407 0.11823738 -0.13376933 0.035315156 -0.09602858 -0.1903648 0.049008787 -0.17177117
-0.1263585 0.17895494 -0.30980593 0.1399263 -0.12424143 -0.0662499 -0.110087745 -0.048871398
0.047925826 0.10123277 0.14467694 0.091895424 0.09371644 0.07005702 0.101584874 -0.0683513
-0.108428426 -0.012110664 0.013133586 -0.088695444 -0.069979146 0.017610364 0.06463884 0.04994874
-0.016510257 0.06405373 -0.039082624 -0.06573682 -0.11325837 0.10965663 -0.22786392 -0.12565143
0.1280964 -0.030973734 -0.055268373 0.0685667 0.06908563 -0.037035175 0.32335606 0.10794772
0.05191416 -0.015669325 0.14253323 -0.0356215 -0.043738447 0.26145476 -0.0035322688 0.028603515
-0.15816985 0.12495901 -0.31802496 -0.17380393 -0.18554048 0.01548186 0.14555043 0.018143913
-0.03184341 0.073115215 0.058172524 0.010068066 0.03880038 -0.10620876 -0.06256202 -0.14552645
-0.17652215 -0.0805547 -0.21732382 0.02111505 0.0529688 0.11112743 -0.08045582 -0.15787429
0.031715482 -0.08364533 -0.027893823 -0.122249395 -0.070341386 0.12235547 0.07921693 -0.15609887
0.0409784 -0.12285395 -0.022153977 0.06658637 0.069224134 -0.019193444 0.03585881 0.010664382
0.08643395 0.0028218287 0.06358668 -0.012209708 0.050222516 0.2792694 -0.010072991 -0.07168872
-0.033833377 0.15524118 -0.07555839 0.0069380687 0.010983361 -0.036367185 -0.0834184 0.060508706
0.013547643 0.07894778 -0.0015405151 0.011023468 0.21162039 0.04046182 -0.057798576 -0.04955764
00000000: 8330 593e 62de 7abd 875c 673d 5ad2 293d
00000010: df6e 4e3e d02d c2bd 972c ea3d da1a 21bd
00000020: 4944 be3c d6ce d9bd 1cb2 1c3d 642f 83bb
00000030: 3002 cebd 62c5 443d a92d 293e 2032 b23d
00000040: d1cb 83bc 2d59 47be b5bd 323e 8fc2 533d
00000050: 9610 023e 8a6a e5bc 544e 2ebd 5a60 e13d
00000060: 4b70 92bd a0ce 63bd 629c a33b 1b1a 8bbd
00000070: d318 2e3b d429 8a3d f31d 25bd e8b4 9d3d
00000080: b3c3 d5bd 5306 ffbd 98b2 3c3e 2812 d63d
00000090: d633 293e 3cd8 fabd 980f 433c f44e 30be
000000a0: 0be0 0fbe a29e 31bd b778 80bd 49ec 1abe
000000b0: d0e3 0fbd 9b89 0c3e 06f6 10be c9c5 82ba
000000c0: 847d 2e3e dea5 89bd a54b 51bc 7088 893d
000000d0: 69d1 be3d 56d6 41bd a658 11be 130d 343e
000000e0: 9636 8dbd 903e 5fbd 92ca e73d f41a 333d
000000f0: 6c37 31bc 7ac8 0b3d 7bad 083e dd42 563e
00000100: ee36 9b3d 4d4b bb3d 8be3 063e 90ff 80bd
00000110: e67d 213d 626a 49bd d1fb acbc 02b1 a43d
00000120: cf1b 983d b067 513d 6e6e 03bd 1933 9fbd
00000130: a01d 113b 7e3a a83b 6abb 093d bc63 f1bd
00000140: a91e bf3d 794b 3cbd c52a ce3b 5cbf 1dbb
00000150: 2b60 4f3d 8f5a d1bd 81bf 373d 72b8 683d
00000160: 5195 533b eff8 0e3e d7b0 5d3c 6ff8 e7bd
00000170: c722 e13d d320 f4bd 4e3f e83d 6a5b 0dbe
00000180: 4e82 a43d 35a6 7e3e db52 92bd d17a 8cbd
00000190: 7006 f7bd 5bd1 21bd b71b dabc 2ad6 a83d
000001a0: 8869 53ba d979 c93d 3a3d 28bd 1ff6 913c
000001b0: 6ee8 3f3d f9fc 07be d4ce e33d 6970 04be
000001c0: 80b5 543d 68e1 a5bb eaf7 fabc 2147 92bd
000001d0: f005 bcbd ddf6 f4bc 3574 d7bd 48fa 04bc
000001e0: 7666 df3d e694 5d3d 3f5e bb3c 2dc1 50be
000001f0: d7ef 553e d893 d2bc 5f49 4d3d 6eb6 0bbe
00000200: b2a0 c13d 15b5 14bc 2e14 d03c c101 203b
00000210: 0ff8 80bd eb4f ab3c 2d50 a0bd 65d3 193b
00000220: 16db 263c 7126 f23d d4fa 08be a0a6 103d
00000230: a2aa c4bd fdee 42be 70bd 483d c8e4 2fbe
00000240: 1f64 01be f73f 373e e29e 9ebe d748 0f3e
00000250: 4a72 febd 07ae 87bd af75 e1bd 602d 48bd
00000260: df4d 443d 2053 cf3d 3126 143e ab33 bc3d
00000270: 68ee bf3d 0e7a 8f3d bb0b d03d c4fb 8bbd
00000280: b90f debd ce6b 46bc 412e 573c f5a5 b5bd
00000290: 3a51 8fbd 9c43 903c 5e61 843d 0d97 4c3d
000002a0: 8540 87bc 9a2e 833d 1a15 20bd 07a1 86bd
000002b0: 01f4 e7bd a893 e03d 2955 69be c5aa 00be
000002c0: b42b 033e a1bc fdbc 1761 62bd b36c 8c3d
000002d0: c47c 8d3d 32b2 17bd ed8e a53e b213 dd3d
000002e0: f1a3 543d f55c 80bc 3bf4 113e dae7 11bd
000002f0: 1627 33bd 66dd 853e a37d 67bb eb51 ea3c
00000300: 47f7 21be 82ea ff3d 2bd4 a2be a8f9 31be
00000310: 53fe 3dbe a1a7 7d3c 2c0b 153e 8ba2 943c
00000320: 3c6e 02bd 6ebd 953d 5046 6e3d 88f4 243c
00000330: 26ed 1e3d fa83 d9bd 8420 80bd e304 15be
00000340: 39c2 34be ddf9 a4bd 238a 5ebe 78f9 ac3c
00000350: d0f5 583d c796 e33d 05c6 a4bd cca9 21be
00000360: 18e8 013d 3e4e abbd 9681 e4bc e45d fabd
00000370: 250f 90bd 8195 fa3d 7c3c a23d 62d8 1fbe
00000380: f7d8 273d da9a fbbd 427c b5bc 6f5e 883d
00000390: 62c5 8d3d 923b 9dbc b0e0 123d a9b9 2e3c
000003a0: 4804 b13d 6eee 383b bc39 823d 3a0b 48bc
000003b0: 20b6 4d3d 66fc 8e3e 3009 25bc 89d1 92bd
000003c0: de94 0abd 8bf7 1e3e 5bbe 9abd bd58 e33b
000003d0: 8ef3 333c c2f5 14bd 44d7 aabd fad7 773d
000003e0: eff6 5d3c 60af a13d 1ceb c9ba c79b 343c
000003f0: 04b3 583e 4bbb 253d 33be 6cbd f4fc 4abd

conv6/Conv2D_bias f4 [32]
-0.012359634 0.08920275 0.036709163 0.0680168 -0.021725038 -0.03243336 0.10381291 0.08453162
0.007413546 0.071754195 -0.013315159 0.066519804 -0.08610838 0.092248335 0.09217463 0.06473678
-0.047773916 0.10262193 0.015233051 0.05436201 0.07727313 -0.008972578 0.0007394181 0.06665117
0.06514317 0.099294186 0.07529331 -0.045532353 0.03268188 0.00784525 -0.022682035 0.03419827
00000000: 1080 4abc eeaf b63d 595c 163d 644c 8b3d
00000010: b5f8 b1bc d8d8 04bd dd9b d43d ea1e ad3d
00000020: 55ed f23b ddf3 923d d327 5abc 893b 883d
00000030: 9759 b0bd b2ec bc3d 0dc6 bc3d b894 843d
00000040: 95ae 43bd 722b d23d 0c94 793c b3aa 5e3d
00000050: 6041 9e3d b801 13bc 82d5 413a 6980 883d
00000060: c869 853d c05a cb3d 6133 9a3d 2280 3abd
00000070: 6fdd 053d 5d89 003c adcf b9bc 7c13 0c3d

conv6/weights f4 [32, 3, 3, 32]
0.08024765 -0.16636716 0.117390946 -0.06206433 -0.25983477 -0.31257847 0.145294 -0.003782135
-0.0022148204 -0.19242325 -0.08879735 0.09802902 -0.048109658 -0.04517791 -0.06625385 0.011495145
0.097811565 0.09313332 -0.03248571 -0.055223607 -0.15589459 0.01287886 -0.00954782 0.017985854
-0.22786444 -0.1338557 0.07733206 -0.080860704 -0.023761483 -0.04063784 -0.11472661 -0.08880361
0.13085245 -0.033775497 0.070269436 -0.024270222 -0.1253329 -0.167896 0.012828604 0.020976452
-0.07617972 -0.12133372 -0.02273614 0.018805671 -0.12511541 -0.03869371 -0.115854464 -0.014572044
-0.12705477 0.051118188 -0.17035712 -0.054658666 -0.1426299 -0.050685517 0.025125604 0.0030430427
-0.32416934 -0.024488335 -0.114341214 -0.09607245 0.05264845 -0.13754258 0.014818054 -0.02084609
0.09984194 -0.022207156 -0.00012730606 0.0031355422 0.17138396 -0.0863007 0.041048653 -0.103392966
-0.06651917 -0.03602883 0.14155932 0.04293591 -0.034226518 -0.08992916 0.040862955 -0.029774522
0.11921561 0.00860888 -0.19353424 -0.0685072 -0.16024974 0.028669333 -0.062395565 0.016630776
-0.00826685 0.04792762 -0.041739505 -0.084441885 0.17307168 -0.0069378526 0.0030412013 -0.10607712
-0.036401134 -0.011910242 0.107417956 0.076338515 -0.1987448 -0.1676907 0.026266798 -0.06816999
-0.0044963504 0.08775614 0.024857895 0.10375673 -0.13144599 0.1544435 0.043679852 -0.07547341
0.00554587 0.1692698 0.25198856 0.036057137 0.1133889 0.017122194 0.057329834 0.110855155
-0.14352088 0.05619794 0.03952829 -0.09021184 0.2180569 0.09583842 -0.061679672 0.106803216
0.1354981 0.00025256464 0.12448819 0.04276143 -0.075703315 -0.045554288 0.041456282 -0.016655428
0.1602898 0.053873286 0.03923117 0.011595686 -0.1427229 0.1202695 -0.0023685833 0.031442434
0.124793455 0.0100644445 -0.00020730379 -0.0019685205 0.02630094 -0.013257136 0.11003921 -0.016371446
-0.08794419 -0.04741882 0.044357814 0.023580123 0.3026502 -0.13910575 -0.028641718 -0.08565085
-0.058846 0.045664746 -0.066835396 0.088786736 0.014587519 -0.21041848 0.021761715 -0.09519215
0.022255816 0.038407512 -0.020770628 -0.043743286 -0.12514627 -0.07428752 0.12905975 -0.010641659
-0.037010577 0.04646449 -0.10576317 0.11401406 0.049224786 -0.072659634 0.024757883 0.07134171
0.1793047 -0.072474785 -0.2258749 -0.09698833 0.1649358 -0.08019509 -0.028854983 -0.035648018
0.07779092 0.15488142 0.0840392 0.095269576 -0.26683757 -0.14014275 -0.0033431405 -0.07444322
0.08948193 0.07625099 -0.0037316687 0.043606974 -0.15484999 -0.011822196 -0.02004972 -0.0144809205
0.19381534 -0.013501706 0.13800542 0.07243844 0.18511605 0.06446576 0.033028707 0.042010456
-0.103922464 0.0328639 0.0095849745 0.092780545 -0.5559388 0.10785632 -0.21482968 0.11065206
0.049872242 0.054451287 -0.009704301 0.0073738284 -0.15727046 -0.09108139 -0.022337765 -0.09990554
0.11617559 0.12858357 -0.097208925 0.09453369 -0.1357224 -0.025978921 0.06628151 0.07480288
0.13383448 0.06274596 0.14433639 0.22421314 0.23182833 0.11893124 0.11873123 0.16358244
-0.009546739 0.063239686 -0.011258198 6.0163333e-05 -0.13582052 0.11163346 -0.006852151 0.07139194
00000000: e158 a43d 275c 2abe aa6a f03d 2b37 7ebd
00000010: 1009 85be 490a a0be f3c7 143e b2dd 77bb
00000020: 8526 11bb 9a0a 45be 63db b5bd 70c3 c83d
00000030: a20e 45bd 790c 39bd 19b0 87bd 2256 3c3c
00000040: 6e51 c83d afbc be3d bc0f 05bd 2632 62bd
00000050: d5a2 1fbe db01 533c 766e 1cbc 1257 933c
00000060: 4c55 69be 7811 09be 4560 9e3d 4c9a a5bd
00000070: 71a7 c2bc dd73 26bd c9f5 eabd abde b5bd
00000080: 2ffe 053e 2d58 0abd 6ce9 8f3d 58d2 c6bc
00000090: 4557 00be eeec 2bbe 112f 523c cfd6 ab3c
000000a0: 1d04 9cbd d07d f8bd 2441 babc 5a0e 9a3c
000000b0: 411e 00be 4c7d 1ebd 1b45 edbd 95bf 6ebc
000000c0: a51a 02be 4e61 513d 1972 2ebe c4e1 5fbd
000000d0: 930d 12be 9e9b 4fbd 36d4 cd3c c96d 473b
000000e0: 86f9 a5be c39b c8bc ba2b eabd a2c1 c4bd
000000f0: e7a5 573d f6d7 0cbe 6cc7 723c 6bc5 aabc
00000100: ee79 cc3d c8eb b5bc 767d 05b9 ab7d 4d3b
00000110: 477f 2f3e 6cbe b0bd a222 283d b1bf d3bd
00000120: 343b 88bd f792 13bd edf4 103e 91dd 2f3d
00000130: 1b31 0cbd c82c b8bd ea5f 273d b3e9 f3bc
00000140: 5027 f43d 430c 0d3c d72d 46be 814d 8cbd
00000150: 8218 24be f3db ea3c 7e92 7fbd 443d 883c
00000160: af71 07bc c14f 443d 0bf7 2abd deef acbd
00000170: b439 313e ed56 e3bb e44e 473b f63e d9bd
00000180: 5b19 15bd 2d23 43bc f2fd db3d 5e57 9c3d
00000190: c283 4bbe 1cb7 2bbe 782d d73c b59c 8bbd
000001a0: 1f56 93bb 7eb9 b33d c9a2 cb3c 697e d43d
000001b0: c799 06be 7026 1e3e a5e9 323d ce91 9abd
000001c0: 21ba b53b 1055 2d3e a504 813e a6b0 133d
000001d0: 7138 e83d d843 8c3c b0d2 6a3d 0708 e33d
000001e0: 23f7 12be d02f 663d 6be8 213d fcc0 b8bd
000001f0: 4f4a 5f3e ef46 c43d d3a3 7cbd a5bb da3d
00000200: 04c0 0a3e a76a 8439 aaf3 fe3d 9c26 2f3d
00000210: 570a 9bbd 2297 3abd 10ce 293d f770 88bc
00000220: 0223 243e 3caa 5c3d ddb0 203d d5fb 3d3c
00000230: f425 12be db4f f63d 3c3a 1bbb c8c9 003d
00000240: b693 ff3d 57e5 243c b05f 59b9 4b02 01bb
00000250: 1275 d73c 7534 59bc 3d5c e13d 691d 86bc
00000260: 151c b4bd 3d3a 42bd 8ab0 353d 1a2b c13c
00000270: f8f4 9a3e bd71 0ebe 09a2 eabc b669 afbd
00000280: 8108 71bd f50a 3b3d ffe0 88bd d2d5 b53d
00000290: 7d00 6f3c f177 57be a045 b23c 1af4 c2bd
000002a0: d451 b63c 3251 1d3d 2a27 aabc 292c 33bd
000002b0: 5826 00be 0e24 98bd 3d28 043e 5a5a 2ebc
000002c0: 6798 17bd 8d51 3e3d 5c9a d8bd 3480 e93d
000002d0: ee9f 493d 93ce 94bd 0bd1 ca3c 9a1b 923d
000002e0: a79b 373e a96d 94bd c04b 67be d1a1 c6bd
000002f0: eee4 283e 533d a4bd 4961 ecbc a803 12bd
00000300: d950 9f3d 3c99 1e3e be1c ac3d b21c c33d
00000310: ef9e 88be 9581 0fbe 9718 5bbb b075 98bd
00000320: 4d42 b73d 7b29 9c3d 038f 74bb 3a9d 323d
00000330: ff90 1ebe e2b1 41bc 4f3f a4bc 6241 6dbc
00000340: 8777 463e 4236 5dbc 4b51 0d3e 9b5a 943d
00000350: 108f 3d3e a006 843d 1c49 073d 2813 2c3d
00000360: 4dd5 d4bd 4c9c 063d 4c0a 1d3c ba03 be3d
00000370: 0152 0ebf c6e3 dc3d 50fc 5bbe 8c9d e23d
00000380: d646 4c3d 5008 5f3d cafe 1ebc 28a0 f13b
00000390: 820b 21be e188 babd b0fd b6bc 479b ccbd
000003a0: 78ed ed3d 69ab 033e 7915 c7bd e19a c13d
000003b0: d0fa 0abe bfd1 d4bc 9abe 873d 4132 993d
000003c0: e80b 093e f480 803d ebcc 133e 2198 653e
000003d0: 6864 6d3e 3992 f33d 5c29 f33d 2882 273e
000003e0: ed69 1cbc cf83 813d 4e74 38bc e357 7c38
000003f0: 8914 0bbe 15a0 e43d 0288 e0bb f035 923d

deconv1/bias f4 [8]
0.04640846 0.054832518 0.04545439 0.032315142 0.055745587 0.033255756 0.07204837 0.06457317
00000000: cc16 3e3d 1098 603d 622e 3a3d e25c 043d
00000010: 7c55 643d 3037 083d 198e 933d f03e 843d

deconv1/weights/read_transposed f4 [8, 3, 3, 16]
-0.13393462 0.056416817 0.12446284 0.071303695 0.18702249 -0.06181261 0.13391975 -0.16198412
0.15468878 0.04953448 -0.054910254 0.19456525 -0.06321636 -0.15108934 -0.04600476 0.061996873
-0.36070392 0.18050966 -0.13045001 0.37072653 0.057534993 -0.17886537 0.09947809 0.12633827
-0.014134251 0.06579736 0.1595427 -0.17036597 -0.21685012 0.0080968235 -0.20509908 0.007816101
0.15021048 -0.067334294 0.21436164 -0.13939251 0.3597914 -0.2361187 0.023572873 0.117568724
0.13160993 -0.014494065 -0.10619251 -0.07361769 0.11298779 -0.31785884 -0.046586286 -0.17552136
-0.16153136 -0.12917985 -0.017683895 -0.02873321 0.017091585 0.11614323 0.034683708 0.070203096
0.25853306 -0.23110671 0.044933863 0.19392866 -0.015095855 -0.30479276 -0.25015986 0.013391031
-0.13320036 -0.15233186 0.001051637 0.29733503 -0.0426877 0.117995985 -0.04759122 -0.0332559
0.32707295 0.033033483 -0.08557474 0.08239487 -0.30411065 0.17013831 -0.065183744 -0.19835317
-0.14063206 -0.18453293 0.019848244 0.06896852 0.18652436 -0.17422257 0.0161606 -0.011282074
0.12769422 0.25124118 0.03528352 0.16895458 -0.1992401 -0.13455354 -0.120868064 0.007917019
-0.1014782 0.008532333 0.107494734 0.12453294 0.06829111 -0.108074024 0.065266736 -0.0015650786
0.09929764 -0.19178058 0.20878907 0.033306796 -0.18286702 -0.08866289 -0.1407418 0.08089516
-0.26940095 0.17458859 -0.13412139 -0.17593397 -0.23790182 0.075064264 0.097570576 0.07626564
-0.11364175 -0.011703783 -0.09959072 -0.1512798 -0.22824901 -0.24210295 -0.15836 -0.25078014
-0.31444773 -0.12806034 -0.058706548 0.17169192 -0.14452866 0.09882855 0.2091549 -0.18653242
-0.025251975 -0.087794445 -0.034101207 -0.029803103 0.009236079 -0.008865046 -0.37176204 0.030213624
-0.07504914 -0.26029792 0.19921593 -0.23994265 0.2735183 0.14493085 0.1265471 -0.012835905
0.40603405 -0.06572674 0.23879088 0.25519314 -0.16226453 -0.012369282 -0.050109517 0.07625908
-0.11582771 0.14865147 0.03272854 -0.009808236 0.018729357 0.013264977 0.26381165 -0.13192956
0.24955441 -0.3126165 0.0027803176 0.17335096 0.1243919 -0.022215718 -0.009807808 -0.046519373
-0.07278147 -0.16807048 0.07604931 0.05886694 0.3637086 -0.11831191 -0.12677681 -0.12957303
0.26172242 -0.028523458 -0.031857837 0.2104766 -0.1528778 0.21005812 -0.21260808 0.08459503
0.13085312 0.17271245 -0.08468002 -0.02883352 0.3755148 -0.0030964436 0.3684383 0.0062639527
0.14368184 0.17676727 -0.12542811 0.16184074 -0.093758225 0.02670503 -0.25624374 -0.1045962
-0.19021071 -0.21524112 0.20240253 -0.36216968 0.10028115 -0.119982325 0.08211102 -0.19345292
0.28852174 -0.17723064 -0.21981382 0.09278024 0.14605649 -0.09123771 0.10279424 -0.04861899
0.0886172 0.053116314 -0.07625909 0.35635588 0.045839734 -0.23691459 0.22290023 -0.229243
0.22317646 -0.13243696 -0.26457402 -0.3063179 0.040741943 0.23472153 0.12833472 -0.016436225
0.04128321 -0.22552997 -0.091728404 -0.23615026 0.037957285 0.1544151 -0.05094358 -0.08976119
0.12825826 -0.045308977 -0.035585046 0.08028999 0.07146091 -0.03193309 -0.1724807 -0.14226834
00000000: 2826 09be 5215 673d 60e6 fe3d ac07 923d
00000010: d382 3f3e 382f 7dbd 4222 093e 2adf 25be
00000020: bc66 1e3e abe4 4a3d 93e9 60bd 1d3c 473e
00000030: 9477 81bd 2ab7 1abe 7d6f 3cbd 6ff0 7d3d
00000040: 2fae b8be 86d7 383e b094 05be decf bd3e
00000050: d0a9 6b3d 7c28 37be 2bbb cb3d d25e 013e
00000060: 5893 67bc c4c0 863d 295f 233e 6b74 2ebe
00000070: f50d 5ebe 8aa8 043c 7e05 52be 1b0f 003c
00000080: c7d0 193e 90e6 89bd 9e81 5b3e e9bc 0ebe
00000090: 9436 b83e 1ac9 71be e61b c13c dfc7 f03d
000000a0: c1c4 063e 8478 6dbc 757b d9bd dfc4 96bd
000000b0: 2466 e73d 65be a2be 43d1 3ebd dfbb 33be
000000c0: 7a68 25be b947 04be d1dd 90bc e961 ebbc
000000d0: a703 8c3c 80dc ed3d 8110 0e3d a4c6 8f3d
000000e0: 725e 843e 3da7 6cbe 920c 383d 3c95 463e
000000f0: 9b54 77bc cc0d 9cbe f414 80be 0e66 5b3c
00000100: ad65 08be e2fc 1bbe 15d7 893a 4c3c 983e
00000110: 4cd9 2ebd e1a7 f13d 03ef 42bd 5737 08bd
00000120: 1b76 a73e 1e4e 073d cf41 afbd a4be a83d
00000130: 64b4 9bbe bd38 2e3e 0e7f 85bd 181d 4bbe
00000140: da01 10be 33f6 3cbe c998 a23c 5e3f 8d3d
00000150: 3e00 3f3e 6767 32be 3c63 843c 73d8 38bc
00000160: 46c2 023e afa2 803e 7485 103d 6e02 2d3e
00000170: 9905 4cbe 67c8 09be ad89 f7bd 62b6 013c
00000180: cdd3 cfbd 33cb 0b3c 3326 dc3d 200b ff3d
00000190: 36dc 8b3d ea55 ddbd 91aa 853d 5323 cdba
000001a0: 905c cb3d 2162 44be cdcc 553e b56c 083d
000001b0: 7e41 3bbe e494 b5bd 9e1e 10be 5dac a53d
000001c0: ecee 89be 5ac7 323e 1e57 09be 0928 34be
000001d0: 899c 73be 4bbb 993d 15d3 c73d 2931 9c3d
000001e0: 01bd e8bd 39c1 3fbc 38f6 cbbd 18e9 1abe
000001f0: 1cba 69be d6e9 77be 2029 22be 4166 80be
00000200: 4bff a0be 4022 03be 4776 70bd 02d0 2f3e
00000210: 52ff 13be 9f66 ca3d b42c 563e 5b02 3fbe
00000220: 3bdd cebc 93cd b3bd b5ad 0bbd a325 f4bc
00000230: ec52 173c b33e 11bc 9857 bebe 9082 f73c
00000240: 5db3 99bd c545 85be 43ff 4b3e 87b3 75be
00000250: 970a 8c3e c168 143e 9095 013e b04d 52bc
00000260: b2e3 cf3e be9b 86bd 9985 743e ada8 823e
00000270: ac28 26be 87a8 4abc a33f 4dbd b82d 9c3d
00000280: 1437 edbd 1738 183e 5d0e 063d b9b2 20bc
00000290: 4f6e 993c 5955 593c 5212 873e 8b18 07be
000002a0: 318b 7f3e 450f a0be fd35 363b ea82 313e
000002b0: 2ec1 fe3d bdfd b5bc eeb0 20bc 198b 3ebd
000002c0: 740e 95bd ab1a 2cbe bebf 9b3d 761e 713d
000002d0: 0338 ba3e 844d f2bd c8d1 01be cbae 04be
000002e0: 7b00 863e 07aa e9bc 5d7d 02bd 2e87 573e
000002f0: ff8b 1cbe 7a19 573e efb5 59be 2940 ad3d
00000300: 5cfe 053e 88db 303e b86c adbd 4634 ecbc
00000310: 7a43 c03e b4ed 4abb f2a3 bc3e d841 cd3b
00000320: 5521 133e 7b02 353e 3a70 00be 94b9 253e
00000330: 5004 c0bd 82c4 da3c 6132 83be 8836 d6bd
00000340: 99c6 42be 2b68 5cbe 9c42 4f3e 4e6e b9be
00000350: 3460 cd3d 4bb9 f5bd d329 a83d 8618 46be
00000360: 1fb9 933e f37b 35be e016 61be 9103 be3d
00000370: d58f 153e d6da babd c985 d23d b524 47bd
00000380: ef7c b53d 7e90 593d ba2d 9cbd 4774 b63e
00000390: 72c2 3b3d bd99 72be f53f 643e adbe 6abe
000003a0: 5f88 643e 8e9d 07be 3f76 87be b3d5 9cbe
000003b0: 06e1 263d d75a 703e 2d6a 033e 43a5 86bc
000003c0: 9518 293d 54f1 66be 1adc bbbd 60d1 71be
000003d0: 1979 1b3d fe1e 1e3e 37aa 50bd b7d4 b7bd
000003e0: 2256 033e e895 39bd a0c1 11bd 146f a43d
000003f0: 195a 923d 46cc 02bd c89e 30be cbae 11be

deconv2/bias f4 [16]
0.005828938 0.04068562 0.07166667 0.06538634 0.083990864 0.07663667 0.05042116 0.007601674
0.07184757 0.08022756 0.08341691 0.078825794 -0.011627579 0.056924835 0.08196139 0.07264679
00000000: ad00 bf3b f7a5 263d fac5 923d 46e9 853d
00000010: 6703 ac3d b0f3 9c3d 6b86 4e3d 7717 f93b
00000020: d224 933d 594e a43d 7cd6 aa3d 6b6f a13d
00000030: 9a81 3ebc 042a 693d 60db a73d d7c7 943d
